#map0 = affine_map<(d0, d1) -> (d0 * 128 + d1 + 12384)>
#map1 = affine_map<(d0, d1) -> (d0 * 256 + d1 + 24800)>
#map2 = affine_map<(d0, d1) -> (d0 * 128 + d1 + 12352)>
#map3 = affine_map<(d0, d1) -> (d0 * 256 + d1 + 16608)>
#map4 = affine_map<(d0, d1) -> (d0 * 128 + d1 + 12320)>
#map5 = affine_map<(d0, d1) -> (d0 * 256 + d1 + 8416)>
#map6 = affine_map<(d0, d1) -> (d0 * 128 + d1 + 12288)>
#map7 = affine_map<(d0, d1) -> (d0 * 256 + d1 + 224)>
#map8 = affine_map<(d0, d1) -> (d0 * 256 + d1 + 24768)>
#map9 = affine_map<(d0, d1) -> (d0 * 256 + d1 + 16576)>
#map10 = affine_map<(d0, d1) -> (d0 * 256 + d1 + 8384)>
#map11 = affine_map<(d0, d1) -> (d0 * 256 + d1 + 192)>
#map12 = affine_map<(d0, d1) -> (d0 * 256 + d1 + 24736)>
#map13 = affine_map<(d0, d1) -> (d0 * 256 + d1 + 16544)>
#map14 = affine_map<(d0, d1) -> (d0 * 256 + d1 + 8352)>
#map15 = affine_map<(d0, d1) -> (d0 * 256 + d1 + 160)>
#map16 = affine_map<(d0, d1) -> (d0 * 256 + d1 + 24704)>
#map17 = affine_map<(d0, d1) -> (d0 * 256 + d1 + 16512)>
#map18 = affine_map<(d0, d1) -> (d0 * 256 + d1 + 8320)>
#map19 = affine_map<(d0, d1) -> (d0 * 256 + d1 + 128)>
#map20 = affine_map<(d0, d1) -> (d0 * 256 + d1 + 24672)>
#map21 = affine_map<(d0, d1) -> (d0 * 256 + d1 + 16480)>
#map22 = affine_map<(d0, d1) -> (d0 * 256 + d1 + 8288)>
#map23 = affine_map<(d0, d1) -> (d0 * 256 + d1 + 96)>
#map24 = affine_map<(d0, d1) -> (d0 * 256 + d1 + 24640)>
#map25 = affine_map<(d0, d1) -> (d0 * 256 + d1 + 16448)>
#map26 = affine_map<(d0, d1) -> (d0 * 256 + d1 + 8256)>
#map27 = affine_map<(d0, d1) -> (d0 * 256 + d1 + 64)>
#map28 = affine_map<(d0, d1) -> (d0 * 256 + d1 + 24608)>
#map29 = affine_map<(d0, d1) -> (d0 * 256 + d1 + 16416)>
#map30 = affine_map<(d0, d1) -> (d0 * 256 + d1 + 8224)>
#map31 = affine_map<(d0, d1) -> (d0 * 256 + d1 + 32)>
#map32 = affine_map<(d0, d1) -> (d0 * 256 + d1 + 24576)>
#map33 = affine_map<(d0, d1) -> (d0 * 256 + d1 + 16384)>
#map34 = affine_map<(d0, d1) -> (d0 * 256 + d1 + 8192)>
#map35 = affine_map<(d0, d1) -> (d0 * 256 + d1)>
#map36 = affine_map<(d0, d1) -> (d0 * 128 + d1 + 8288)>
#map37 = affine_map<(d0, d1) -> (d0 * 128 + d1 + 8256)>
#map38 = affine_map<(d0, d1) -> (d0 * 128 + d1 + 8224)>
#map39 = affine_map<(d0, d1) -> (d0 * 128 + d1 + 8192)>
#map40 = affine_map<(d0, d1) -> (d0 * 128 + d1 + 4192)>
#map41 = affine_map<(d0, d1) -> (d0 * 128 + d1 + 4160)>
#map42 = affine_map<(d0, d1) -> (d0 * 128 + d1 + 4128)>
#map43 = affine_map<(d0, d1) -> (d0 * 128 + d1 + 4096)>
#map44 = affine_map<(d0, d1) -> (d0 * 128 + d1 + 96)>
#map45 = affine_map<(d0, d1) -> (d0 * 128 + d1 + 64)>
#map46 = affine_map<(d0, d1) -> (d0 * 128 + d1 + 32)>
#map47 = affine_map<(d0, d1) -> (d0 * 128 + d1)>
module {
  func @PE0_AIE127(%arg0: memref<32x32xf32, #map0>, %arg1: memref<32x32xf32, #map1>, %arg2: memref<32x32xf32, #map1>) -> memref<32x32xf32, #map1> {
    %0 = memref.alloc() : memref<32x32xf32, #map1>
    affine.for %arg3 = 0 to 32 {
      affine.for %arg4 = 0 to 32 {
        %1 = affine.load %arg2[%arg3, %arg4] : memref<32x32xf32, #map1>
        affine.store %1, %0[%arg3, %arg4] : memref<32x32xf32, #map1>
      }
    }
    affine.for %arg3 = 0 to 32 {
      affine.for %arg4 = 0 to 32 {
        affine.for %arg5 = 0 to 32 {
          %1 = affine.load %arg0[%arg3, %arg5] : memref<32x32xf32, #map0>
          %2 = affine.load %arg1[%arg5, %arg4] : memref<32x32xf32, #map1>
          %3 = arith.mulf %1, %2 : f32
          %4 = affine.load %0[%arg3, %arg4] : memref<32x32xf32, #map1>
          %5 = arith.addf %4, %3 : f32
          affine.store %5, %0[%arg3, %arg4] : memref<32x32xf32, #map1>
        }
      }
    }
    return %0 : memref<32x32xf32, #map1>
  }
  func @PE0_AIE126(%arg0: memref<32x32xf32, #map2>, %arg1: memref<32x32xf32, #map3>, %arg2: memref<32x32xf32, #map1>) -> memref<32x32xf32, #map1> {
    %0 = memref.alloc() : memref<32x32xf32, #map1>
    affine.for %arg3 = 0 to 32 {
      affine.for %arg4 = 0 to 32 {
        %1 = affine.load %arg2[%arg3, %arg4] : memref<32x32xf32, #map1>
        affine.store %1, %0[%arg3, %arg4] : memref<32x32xf32, #map1>
      }
    }
    affine.for %arg3 = 0 to 32 {
      affine.for %arg4 = 0 to 32 {
        affine.for %arg5 = 0 to 32 {
          %1 = affine.load %arg0[%arg3, %arg5] : memref<32x32xf32, #map2>
          %2 = affine.load %arg1[%arg5, %arg4] : memref<32x32xf32, #map3>
          %3 = arith.mulf %1, %2 : f32
          %4 = affine.load %0[%arg3, %arg4] : memref<32x32xf32, #map1>
          %5 = arith.addf %4, %3 : f32
          affine.store %5, %0[%arg3, %arg4] : memref<32x32xf32, #map1>
        }
      }
    }
    return %0 : memref<32x32xf32, #map1>
  }
  func @PE0_AIE125(%arg0: memref<32x32xf32, #map4>, %arg1: memref<32x32xf32, #map5>, %arg2: memref<32x32xf32, #map1>) -> memref<32x32xf32, #map1> {
    %0 = memref.alloc() : memref<32x32xf32, #map1>
    affine.for %arg3 = 0 to 32 {
      affine.for %arg4 = 0 to 32 {
        %1 = affine.load %arg2[%arg3, %arg4] : memref<32x32xf32, #map1>
        affine.store %1, %0[%arg3, %arg4] : memref<32x32xf32, #map1>
      }
    }
    affine.for %arg3 = 0 to 32 {
      affine.for %arg4 = 0 to 32 {
        affine.for %arg5 = 0 to 32 {
          %1 = affine.load %arg0[%arg3, %arg5] : memref<32x32xf32, #map4>
          %2 = affine.load %arg1[%arg5, %arg4] : memref<32x32xf32, #map5>
          %3 = arith.mulf %1, %2 : f32
          %4 = affine.load %0[%arg3, %arg4] : memref<32x32xf32, #map1>
          %5 = arith.addf %4, %3 : f32
          affine.store %5, %0[%arg3, %arg4] : memref<32x32xf32, #map1>
        }
      }
    }
    return %0 : memref<32x32xf32, #map1>
  }
  func @PE0_AIE124(%arg0: memref<32x32xf32, #map6>, %arg1: memref<32x32xf32, #map7>, %arg2: memref<32x32xf32, #map1>) -> memref<32x32xf32, #map1> {
    %0 = memref.alloc() : memref<32x32xf32, #map1>
    affine.for %arg3 = 0 to 32 {
      affine.for %arg4 = 0 to 32 {
        %1 = affine.load %arg2[%arg3, %arg4] : memref<32x32xf32, #map1>
        affine.store %1, %0[%arg3, %arg4] : memref<32x32xf32, #map1>
      }
    }
    affine.for %arg3 = 0 to 32 {
      affine.for %arg4 = 0 to 32 {
        affine.for %arg5 = 0 to 32 {
          %1 = affine.load %arg0[%arg3, %arg5] : memref<32x32xf32, #map6>
          %2 = affine.load %arg1[%arg5, %arg4] : memref<32x32xf32, #map7>
          %3 = arith.mulf %1, %2 : f32
          %4 = affine.load %0[%arg3, %arg4] : memref<32x32xf32, #map1>
          %5 = arith.addf %4, %3 : f32
          affine.store %5, %0[%arg3, %arg4] : memref<32x32xf32, #map1>
        }
      }
    }
    return %0 : memref<32x32xf32, #map1>
  }
  func @PE0_AIE123(%arg0: memref<32x32xf32, #map0>, %arg1: memref<32x32xf32, #map8>, %arg2: memref<32x32xf32, #map8>) -> memref<32x32xf32, #map8> {
    %0 = memref.alloc() : memref<32x32xf32, #map8>
    affine.for %arg3 = 0 to 32 {
      affine.for %arg4 = 0 to 32 {
        %1 = affine.load %arg2[%arg3, %arg4] : memref<32x32xf32, #map8>
        affine.store %1, %0[%arg3, %arg4] : memref<32x32xf32, #map8>
      }
    }
    affine.for %arg3 = 0 to 32 {
      affine.for %arg4 = 0 to 32 {
        affine.for %arg5 = 0 to 32 {
          %1 = affine.load %arg0[%arg3, %arg5] : memref<32x32xf32, #map0>
          %2 = affine.load %arg1[%arg5, %arg4] : memref<32x32xf32, #map8>
          %3 = arith.mulf %1, %2 : f32
          %4 = affine.load %0[%arg3, %arg4] : memref<32x32xf32, #map8>
          %5 = arith.addf %4, %3 : f32
          affine.store %5, %0[%arg3, %arg4] : memref<32x32xf32, #map8>
        }
      }
    }
    return %0 : memref<32x32xf32, #map8>
  }
  func @PE0_AIE122(%arg0: memref<32x32xf32, #map2>, %arg1: memref<32x32xf32, #map9>, %arg2: memref<32x32xf32, #map8>) -> memref<32x32xf32, #map8> {
    %0 = memref.alloc() : memref<32x32xf32, #map8>
    affine.for %arg3 = 0 to 32 {
      affine.for %arg4 = 0 to 32 {
        %1 = affine.load %arg2[%arg3, %arg4] : memref<32x32xf32, #map8>
        affine.store %1, %0[%arg3, %arg4] : memref<32x32xf32, #map8>
      }
    }
    affine.for %arg3 = 0 to 32 {
      affine.for %arg4 = 0 to 32 {
        affine.for %arg5 = 0 to 32 {
          %1 = affine.load %arg0[%arg3, %arg5] : memref<32x32xf32, #map2>
          %2 = affine.load %arg1[%arg5, %arg4] : memref<32x32xf32, #map9>
          %3 = arith.mulf %1, %2 : f32
          %4 = affine.load %0[%arg3, %arg4] : memref<32x32xf32, #map8>
          %5 = arith.addf %4, %3 : f32
          affine.store %5, %0[%arg3, %arg4] : memref<32x32xf32, #map8>
        }
      }
    }
    return %0 : memref<32x32xf32, #map8>
  }
  func @PE0_AIE121(%arg0: memref<32x32xf32, #map4>, %arg1: memref<32x32xf32, #map10>, %arg2: memref<32x32xf32, #map8>) -> memref<32x32xf32, #map8> {
    %0 = memref.alloc() : memref<32x32xf32, #map8>
    affine.for %arg3 = 0 to 32 {
      affine.for %arg4 = 0 to 32 {
        %1 = affine.load %arg2[%arg3, %arg4] : memref<32x32xf32, #map8>
        affine.store %1, %0[%arg3, %arg4] : memref<32x32xf32, #map8>
      }
    }
    affine.for %arg3 = 0 to 32 {
      affine.for %arg4 = 0 to 32 {
        affine.for %arg5 = 0 to 32 {
          %1 = affine.load %arg0[%arg3, %arg5] : memref<32x32xf32, #map4>
          %2 = affine.load %arg1[%arg5, %arg4] : memref<32x32xf32, #map10>
          %3 = arith.mulf %1, %2 : f32
          %4 = affine.load %0[%arg3, %arg4] : memref<32x32xf32, #map8>
          %5 = arith.addf %4, %3 : f32
          affine.store %5, %0[%arg3, %arg4] : memref<32x32xf32, #map8>
        }
      }
    }
    return %0 : memref<32x32xf32, #map8>
  }
  func @PE0_AIE120(%arg0: memref<32x32xf32, #map6>, %arg1: memref<32x32xf32, #map11>, %arg2: memref<32x32xf32, #map8>) -> memref<32x32xf32, #map8> {
    %0 = memref.alloc() : memref<32x32xf32, #map8>
    affine.for %arg3 = 0 to 32 {
      affine.for %arg4 = 0 to 32 {
        %1 = affine.load %arg2[%arg3, %arg4] : memref<32x32xf32, #map8>
        affine.store %1, %0[%arg3, %arg4] : memref<32x32xf32, #map8>
      }
    }
    affine.for %arg3 = 0 to 32 {
      affine.for %arg4 = 0 to 32 {
        affine.for %arg5 = 0 to 32 {
          %1 = affine.load %arg0[%arg3, %arg5] : memref<32x32xf32, #map6>
          %2 = affine.load %arg1[%arg5, %arg4] : memref<32x32xf32, #map11>
          %3 = arith.mulf %1, %2 : f32
          %4 = affine.load %0[%arg3, %arg4] : memref<32x32xf32, #map8>
          %5 = arith.addf %4, %3 : f32
          affine.store %5, %0[%arg3, %arg4] : memref<32x32xf32, #map8>
        }
      }
    }
    return %0 : memref<32x32xf32, #map8>
  }
  func @PE0_AIE119(%arg0: memref<32x32xf32, #map0>, %arg1: memref<32x32xf32, #map12>, %arg2: memref<32x32xf32, #map12>) -> memref<32x32xf32, #map12> {
    %0 = memref.alloc() : memref<32x32xf32, #map12>
    affine.for %arg3 = 0 to 32 {
      affine.for %arg4 = 0 to 32 {
        %1 = affine.load %arg2[%arg3, %arg4] : memref<32x32xf32, #map12>
        affine.store %1, %0[%arg3, %arg4] : memref<32x32xf32, #map12>
      }
    }
    affine.for %arg3 = 0 to 32 {
      affine.for %arg4 = 0 to 32 {
        affine.for %arg5 = 0 to 32 {
          %1 = affine.load %arg0[%arg3, %arg5] : memref<32x32xf32, #map0>
          %2 = affine.load %arg1[%arg5, %arg4] : memref<32x32xf32, #map12>
          %3 = arith.mulf %1, %2 : f32
          %4 = affine.load %0[%arg3, %arg4] : memref<32x32xf32, #map12>
          %5 = arith.addf %4, %3 : f32
          affine.store %5, %0[%arg3, %arg4] : memref<32x32xf32, #map12>
        }
      }
    }
    return %0 : memref<32x32xf32, #map12>
  }
  func @PE0_AIE118(%arg0: memref<32x32xf32, #map2>, %arg1: memref<32x32xf32, #map13>, %arg2: memref<32x32xf32, #map12>) -> memref<32x32xf32, #map12> {
    %0 = memref.alloc() : memref<32x32xf32, #map12>
    affine.for %arg3 = 0 to 32 {
      affine.for %arg4 = 0 to 32 {
        %1 = affine.load %arg2[%arg3, %arg4] : memref<32x32xf32, #map12>
        affine.store %1, %0[%arg3, %arg4] : memref<32x32xf32, #map12>
      }
    }
    affine.for %arg3 = 0 to 32 {
      affine.for %arg4 = 0 to 32 {
        affine.for %arg5 = 0 to 32 {
          %1 = affine.load %arg0[%arg3, %arg5] : memref<32x32xf32, #map2>
          %2 = affine.load %arg1[%arg5, %arg4] : memref<32x32xf32, #map13>
          %3 = arith.mulf %1, %2 : f32
          %4 = affine.load %0[%arg3, %arg4] : memref<32x32xf32, #map12>
          %5 = arith.addf %4, %3 : f32
          affine.store %5, %0[%arg3, %arg4] : memref<32x32xf32, #map12>
        }
      }
    }
    return %0 : memref<32x32xf32, #map12>
  }
  func @PE0_AIE117(%arg0: memref<32x32xf32, #map4>, %arg1: memref<32x32xf32, #map14>, %arg2: memref<32x32xf32, #map12>) -> memref<32x32xf32, #map12> {
    %0 = memref.alloc() : memref<32x32xf32, #map12>
    affine.for %arg3 = 0 to 32 {
      affine.for %arg4 = 0 to 32 {
        %1 = affine.load %arg2[%arg3, %arg4] : memref<32x32xf32, #map12>
        affine.store %1, %0[%arg3, %arg4] : memref<32x32xf32, #map12>
      }
    }
    affine.for %arg3 = 0 to 32 {
      affine.for %arg4 = 0 to 32 {
        affine.for %arg5 = 0 to 32 {
          %1 = affine.load %arg0[%arg3, %arg5] : memref<32x32xf32, #map4>
          %2 = affine.load %arg1[%arg5, %arg4] : memref<32x32xf32, #map14>
          %3 = arith.mulf %1, %2 : f32
          %4 = affine.load %0[%arg3, %arg4] : memref<32x32xf32, #map12>
          %5 = arith.addf %4, %3 : f32
          affine.store %5, %0[%arg3, %arg4] : memref<32x32xf32, #map12>
        }
      }
    }
    return %0 : memref<32x32xf32, #map12>
  }
  func @PE0_AIE116(%arg0: memref<32x32xf32, #map6>, %arg1: memref<32x32xf32, #map15>, %arg2: memref<32x32xf32, #map12>) -> memref<32x32xf32, #map12> {
    %0 = memref.alloc() : memref<32x32xf32, #map12>
    affine.for %arg3 = 0 to 32 {
      affine.for %arg4 = 0 to 32 {
        %1 = affine.load %arg2[%arg3, %arg4] : memref<32x32xf32, #map12>
        affine.store %1, %0[%arg3, %arg4] : memref<32x32xf32, #map12>
      }
    }
    affine.for %arg3 = 0 to 32 {
      affine.for %arg4 = 0 to 32 {
        affine.for %arg5 = 0 to 32 {
          %1 = affine.load %arg0[%arg3, %arg5] : memref<32x32xf32, #map6>
          %2 = affine.load %arg1[%arg5, %arg4] : memref<32x32xf32, #map15>
          %3 = arith.mulf %1, %2 : f32
          %4 = affine.load %0[%arg3, %arg4] : memref<32x32xf32, #map12>
          %5 = arith.addf %4, %3 : f32
          affine.store %5, %0[%arg3, %arg4] : memref<32x32xf32, #map12>
        }
      }
    }
    return %0 : memref<32x32xf32, #map12>
  }
  func @PE0_AIE115(%arg0: memref<32x32xf32, #map0>, %arg1: memref<32x32xf32, #map16>, %arg2: memref<32x32xf32, #map16>) -> memref<32x32xf32, #map16> {
    %0 = memref.alloc() : memref<32x32xf32, #map16>
    affine.for %arg3 = 0 to 32 {
      affine.for %arg4 = 0 to 32 {
        %1 = affine.load %arg2[%arg3, %arg4] : memref<32x32xf32, #map16>
        affine.store %1, %0[%arg3, %arg4] : memref<32x32xf32, #map16>
      }
    }
    affine.for %arg3 = 0 to 32 {
      affine.for %arg4 = 0 to 32 {
        affine.for %arg5 = 0 to 32 {
          %1 = affine.load %arg0[%arg3, %arg5] : memref<32x32xf32, #map0>
          %2 = affine.load %arg1[%arg5, %arg4] : memref<32x32xf32, #map16>
          %3 = arith.mulf %1, %2 : f32
          %4 = affine.load %0[%arg3, %arg4] : memref<32x32xf32, #map16>
          %5 = arith.addf %4, %3 : f32
          affine.store %5, %0[%arg3, %arg4] : memref<32x32xf32, #map16>
        }
      }
    }
    return %0 : memref<32x32xf32, #map16>
  }
  func @PE0_AIE114(%arg0: memref<32x32xf32, #map2>, %arg1: memref<32x32xf32, #map17>, %arg2: memref<32x32xf32, #map16>) -> memref<32x32xf32, #map16> {
    %0 = memref.alloc() : memref<32x32xf32, #map16>
    affine.for %arg3 = 0 to 32 {
      affine.for %arg4 = 0 to 32 {
        %1 = affine.load %arg2[%arg3, %arg4] : memref<32x32xf32, #map16>
        affine.store %1, %0[%arg3, %arg4] : memref<32x32xf32, #map16>
      }
    }
    affine.for %arg3 = 0 to 32 {
      affine.for %arg4 = 0 to 32 {
        affine.for %arg5 = 0 to 32 {
          %1 = affine.load %arg0[%arg3, %arg5] : memref<32x32xf32, #map2>
          %2 = affine.load %arg1[%arg5, %arg4] : memref<32x32xf32, #map17>
          %3 = arith.mulf %1, %2 : f32
          %4 = affine.load %0[%arg3, %arg4] : memref<32x32xf32, #map16>
          %5 = arith.addf %4, %3 : f32
          affine.store %5, %0[%arg3, %arg4] : memref<32x32xf32, #map16>
        }
      }
    }
    return %0 : memref<32x32xf32, #map16>
  }
  func @PE0_AIE113(%arg0: memref<32x32xf32, #map4>, %arg1: memref<32x32xf32, #map18>, %arg2: memref<32x32xf32, #map16>) -> memref<32x32xf32, #map16> {
    %0 = memref.alloc() : memref<32x32xf32, #map16>
    affine.for %arg3 = 0 to 32 {
      affine.for %arg4 = 0 to 32 {
        %1 = affine.load %arg2[%arg3, %arg4] : memref<32x32xf32, #map16>
        affine.store %1, %0[%arg3, %arg4] : memref<32x32xf32, #map16>
      }
    }
    affine.for %arg3 = 0 to 32 {
      affine.for %arg4 = 0 to 32 {
        affine.for %arg5 = 0 to 32 {
          %1 = affine.load %arg0[%arg3, %arg5] : memref<32x32xf32, #map4>
          %2 = affine.load %arg1[%arg5, %arg4] : memref<32x32xf32, #map18>
          %3 = arith.mulf %1, %2 : f32
          %4 = affine.load %0[%arg3, %arg4] : memref<32x32xf32, #map16>
          %5 = arith.addf %4, %3 : f32
          affine.store %5, %0[%arg3, %arg4] : memref<32x32xf32, #map16>
        }
      }
    }
    return %0 : memref<32x32xf32, #map16>
  }
  func @PE0_AIE112(%arg0: memref<32x32xf32, #map6>, %arg1: memref<32x32xf32, #map19>, %arg2: memref<32x32xf32, #map16>) -> memref<32x32xf32, #map16> {
    %0 = memref.alloc() : memref<32x32xf32, #map16>
    affine.for %arg3 = 0 to 32 {
      affine.for %arg4 = 0 to 32 {
        %1 = affine.load %arg2[%arg3, %arg4] : memref<32x32xf32, #map16>
        affine.store %1, %0[%arg3, %arg4] : memref<32x32xf32, #map16>
      }
    }
    affine.for %arg3 = 0 to 32 {
      affine.for %arg4 = 0 to 32 {
        affine.for %arg5 = 0 to 32 {
          %1 = affine.load %arg0[%arg3, %arg5] : memref<32x32xf32, #map6>
          %2 = affine.load %arg1[%arg5, %arg4] : memref<32x32xf32, #map19>
          %3 = arith.mulf %1, %2 : f32
          %4 = affine.load %0[%arg3, %arg4] : memref<32x32xf32, #map16>
          %5 = arith.addf %4, %3 : f32
          affine.store %5, %0[%arg3, %arg4] : memref<32x32xf32, #map16>
        }
      }
    }
    return %0 : memref<32x32xf32, #map16>
  }
  func @PE0_AIE111(%arg0: memref<32x32xf32, #map0>, %arg1: memref<32x32xf32, #map20>, %arg2: memref<32x32xf32, #map20>) -> memref<32x32xf32, #map20> {
    %0 = memref.alloc() : memref<32x32xf32, #map20>
    affine.for %arg3 = 0 to 32 {
      affine.for %arg4 = 0 to 32 {
        %1 = affine.load %arg2[%arg3, %arg4] : memref<32x32xf32, #map20>
        affine.store %1, %0[%arg3, %arg4] : memref<32x32xf32, #map20>
      }
    }
    affine.for %arg3 = 0 to 32 {
      affine.for %arg4 = 0 to 32 {
        affine.for %arg5 = 0 to 32 {
          %1 = affine.load %arg0[%arg3, %arg5] : memref<32x32xf32, #map0>
          %2 = affine.load %arg1[%arg5, %arg4] : memref<32x32xf32, #map20>
          %3 = arith.mulf %1, %2 : f32
          %4 = affine.load %0[%arg3, %arg4] : memref<32x32xf32, #map20>
          %5 = arith.addf %4, %3 : f32
          affine.store %5, %0[%arg3, %arg4] : memref<32x32xf32, #map20>
        }
      }
    }
    return %0 : memref<32x32xf32, #map20>
  }
  func @PE0_AIE110(%arg0: memref<32x32xf32, #map2>, %arg1: memref<32x32xf32, #map21>, %arg2: memref<32x32xf32, #map20>) -> memref<32x32xf32, #map20> {
    %0 = memref.alloc() : memref<32x32xf32, #map20>
    affine.for %arg3 = 0 to 32 {
      affine.for %arg4 = 0 to 32 {
        %1 = affine.load %arg2[%arg3, %arg4] : memref<32x32xf32, #map20>
        affine.store %1, %0[%arg3, %arg4] : memref<32x32xf32, #map20>
      }
    }
    affine.for %arg3 = 0 to 32 {
      affine.for %arg4 = 0 to 32 {
        affine.for %arg5 = 0 to 32 {
          %1 = affine.load %arg0[%arg3, %arg5] : memref<32x32xf32, #map2>
          %2 = affine.load %arg1[%arg5, %arg4] : memref<32x32xf32, #map21>
          %3 = arith.mulf %1, %2 : f32
          %4 = affine.load %0[%arg3, %arg4] : memref<32x32xf32, #map20>
          %5 = arith.addf %4, %3 : f32
          affine.store %5, %0[%arg3, %arg4] : memref<32x32xf32, #map20>
        }
      }
    }
    return %0 : memref<32x32xf32, #map20>
  }
  func @PE0_AIE109(%arg0: memref<32x32xf32, #map4>, %arg1: memref<32x32xf32, #map22>, %arg2: memref<32x32xf32, #map20>) -> memref<32x32xf32, #map20> {
    %0 = memref.alloc() : memref<32x32xf32, #map20>
    affine.for %arg3 = 0 to 32 {
      affine.for %arg4 = 0 to 32 {
        %1 = affine.load %arg2[%arg3, %arg4] : memref<32x32xf32, #map20>
        affine.store %1, %0[%arg3, %arg4] : memref<32x32xf32, #map20>
      }
    }
    affine.for %arg3 = 0 to 32 {
      affine.for %arg4 = 0 to 32 {
        affine.for %arg5 = 0 to 32 {
          %1 = affine.load %arg0[%arg3, %arg5] : memref<32x32xf32, #map4>
          %2 = affine.load %arg1[%arg5, %arg4] : memref<32x32xf32, #map22>
          %3 = arith.mulf %1, %2 : f32
          %4 = affine.load %0[%arg3, %arg4] : memref<32x32xf32, #map20>
          %5 = arith.addf %4, %3 : f32
          affine.store %5, %0[%arg3, %arg4] : memref<32x32xf32, #map20>
        }
      }
    }
    return %0 : memref<32x32xf32, #map20>
  }
  func @PE0_AIE108(%arg0: memref<32x32xf32, #map6>, %arg1: memref<32x32xf32, #map23>, %arg2: memref<32x32xf32, #map20>) -> memref<32x32xf32, #map20> {
    %0 = memref.alloc() : memref<32x32xf32, #map20>
    affine.for %arg3 = 0 to 32 {
      affine.for %arg4 = 0 to 32 {
        %1 = affine.load %arg2[%arg3, %arg4] : memref<32x32xf32, #map20>
        affine.store %1, %0[%arg3, %arg4] : memref<32x32xf32, #map20>
      }
    }
    affine.for %arg3 = 0 to 32 {
      affine.for %arg4 = 0 to 32 {
        affine.for %arg5 = 0 to 32 {
          %1 = affine.load %arg0[%arg3, %arg5] : memref<32x32xf32, #map6>
          %2 = affine.load %arg1[%arg5, %arg4] : memref<32x32xf32, #map23>
          %3 = arith.mulf %1, %2 : f32
          %4 = affine.load %0[%arg3, %arg4] : memref<32x32xf32, #map20>
          %5 = arith.addf %4, %3 : f32
          affine.store %5, %0[%arg3, %arg4] : memref<32x32xf32, #map20>
        }
      }
    }
    return %0 : memref<32x32xf32, #map20>
  }
  func @PE0_AIE107(%arg0: memref<32x32xf32, #map0>, %arg1: memref<32x32xf32, #map24>, %arg2: memref<32x32xf32, #map24>) -> memref<32x32xf32, #map24> {
    %0 = memref.alloc() : memref<32x32xf32, #map24>
    affine.for %arg3 = 0 to 32 {
      affine.for %arg4 = 0 to 32 {
        %1 = affine.load %arg2[%arg3, %arg4] : memref<32x32xf32, #map24>
        affine.store %1, %0[%arg3, %arg4] : memref<32x32xf32, #map24>
      }
    }
    affine.for %arg3 = 0 to 32 {
      affine.for %arg4 = 0 to 32 {
        affine.for %arg5 = 0 to 32 {
          %1 = affine.load %arg0[%arg3, %arg5] : memref<32x32xf32, #map0>
          %2 = affine.load %arg1[%arg5, %arg4] : memref<32x32xf32, #map24>
          %3 = arith.mulf %1, %2 : f32
          %4 = affine.load %0[%arg3, %arg4] : memref<32x32xf32, #map24>
          %5 = arith.addf %4, %3 : f32
          affine.store %5, %0[%arg3, %arg4] : memref<32x32xf32, #map24>
        }
      }
    }
    return %0 : memref<32x32xf32, #map24>
  }
  func @PE0_AIE106(%arg0: memref<32x32xf32, #map2>, %arg1: memref<32x32xf32, #map25>, %arg2: memref<32x32xf32, #map24>) -> memref<32x32xf32, #map24> {
    %0 = memref.alloc() : memref<32x32xf32, #map24>
    affine.for %arg3 = 0 to 32 {
      affine.for %arg4 = 0 to 32 {
        %1 = affine.load %arg2[%arg3, %arg4] : memref<32x32xf32, #map24>
        affine.store %1, %0[%arg3, %arg4] : memref<32x32xf32, #map24>
      }
    }
    affine.for %arg3 = 0 to 32 {
      affine.for %arg4 = 0 to 32 {
        affine.for %arg5 = 0 to 32 {
          %1 = affine.load %arg0[%arg3, %arg5] : memref<32x32xf32, #map2>
          %2 = affine.load %arg1[%arg5, %arg4] : memref<32x32xf32, #map25>
          %3 = arith.mulf %1, %2 : f32
          %4 = affine.load %0[%arg3, %arg4] : memref<32x32xf32, #map24>
          %5 = arith.addf %4, %3 : f32
          affine.store %5, %0[%arg3, %arg4] : memref<32x32xf32, #map24>
        }
      }
    }
    return %0 : memref<32x32xf32, #map24>
  }
  func @PE0_AIE105(%arg0: memref<32x32xf32, #map4>, %arg1: memref<32x32xf32, #map26>, %arg2: memref<32x32xf32, #map24>) -> memref<32x32xf32, #map24> {
    %0 = memref.alloc() : memref<32x32xf32, #map24>
    affine.for %arg3 = 0 to 32 {
      affine.for %arg4 = 0 to 32 {
        %1 = affine.load %arg2[%arg3, %arg4] : memref<32x32xf32, #map24>
        affine.store %1, %0[%arg3, %arg4] : memref<32x32xf32, #map24>
      }
    }
    affine.for %arg3 = 0 to 32 {
      affine.for %arg4 = 0 to 32 {
        affine.for %arg5 = 0 to 32 {
          %1 = affine.load %arg0[%arg3, %arg5] : memref<32x32xf32, #map4>
          %2 = affine.load %arg1[%arg5, %arg4] : memref<32x32xf32, #map26>
          %3 = arith.mulf %1, %2 : f32
          %4 = affine.load %0[%arg3, %arg4] : memref<32x32xf32, #map24>
          %5 = arith.addf %4, %3 : f32
          affine.store %5, %0[%arg3, %arg4] : memref<32x32xf32, #map24>
        }
      }
    }
    return %0 : memref<32x32xf32, #map24>
  }
  func @PE0_AIE104(%arg0: memref<32x32xf32, #map6>, %arg1: memref<32x32xf32, #map27>, %arg2: memref<32x32xf32, #map24>) -> memref<32x32xf32, #map24> {
    %0 = memref.alloc() : memref<32x32xf32, #map24>
    affine.for %arg3 = 0 to 32 {
      affine.for %arg4 = 0 to 32 {
        %1 = affine.load %arg2[%arg3, %arg4] : memref<32x32xf32, #map24>
        affine.store %1, %0[%arg3, %arg4] : memref<32x32xf32, #map24>
      }
    }
    affine.for %arg3 = 0 to 32 {
      affine.for %arg4 = 0 to 32 {
        affine.for %arg5 = 0 to 32 {
          %1 = affine.load %arg0[%arg3, %arg5] : memref<32x32xf32, #map6>
          %2 = affine.load %arg1[%arg5, %arg4] : memref<32x32xf32, #map27>
          %3 = arith.mulf %1, %2 : f32
          %4 = affine.load %0[%arg3, %arg4] : memref<32x32xf32, #map24>
          %5 = arith.addf %4, %3 : f32
          affine.store %5, %0[%arg3, %arg4] : memref<32x32xf32, #map24>
        }
      }
    }
    return %0 : memref<32x32xf32, #map24>
  }
  func @PE0_AIE103(%arg0: memref<32x32xf32, #map0>, %arg1: memref<32x32xf32, #map28>, %arg2: memref<32x32xf32, #map28>) -> memref<32x32xf32, #map28> {
    %0 = memref.alloc() : memref<32x32xf32, #map28>
    affine.for %arg3 = 0 to 32 {
      affine.for %arg4 = 0 to 32 {
        %1 = affine.load %arg2[%arg3, %arg4] : memref<32x32xf32, #map28>
        affine.store %1, %0[%arg3, %arg4] : memref<32x32xf32, #map28>
      }
    }
    affine.for %arg3 = 0 to 32 {
      affine.for %arg4 = 0 to 32 {
        affine.for %arg5 = 0 to 32 {
          %1 = affine.load %arg0[%arg3, %arg5] : memref<32x32xf32, #map0>
          %2 = affine.load %arg1[%arg5, %arg4] : memref<32x32xf32, #map28>
          %3 = arith.mulf %1, %2 : f32
          %4 = affine.load %0[%arg3, %arg4] : memref<32x32xf32, #map28>
          %5 = arith.addf %4, %3 : f32
          affine.store %5, %0[%arg3, %arg4] : memref<32x32xf32, #map28>
        }
      }
    }
    return %0 : memref<32x32xf32, #map28>
  }
  func @PE0_AIE102(%arg0: memref<32x32xf32, #map2>, %arg1: memref<32x32xf32, #map29>, %arg2: memref<32x32xf32, #map28>) -> memref<32x32xf32, #map28> {
    %0 = memref.alloc() : memref<32x32xf32, #map28>
    affine.for %arg3 = 0 to 32 {
      affine.for %arg4 = 0 to 32 {
        %1 = affine.load %arg2[%arg3, %arg4] : memref<32x32xf32, #map28>
        affine.store %1, %0[%arg3, %arg4] : memref<32x32xf32, #map28>
      }
    }
    affine.for %arg3 = 0 to 32 {
      affine.for %arg4 = 0 to 32 {
        affine.for %arg5 = 0 to 32 {
          %1 = affine.load %arg0[%arg3, %arg5] : memref<32x32xf32, #map2>
          %2 = affine.load %arg1[%arg5, %arg4] : memref<32x32xf32, #map29>
          %3 = arith.mulf %1, %2 : f32
          %4 = affine.load %0[%arg3, %arg4] : memref<32x32xf32, #map28>
          %5 = arith.addf %4, %3 : f32
          affine.store %5, %0[%arg3, %arg4] : memref<32x32xf32, #map28>
        }
      }
    }
    return %0 : memref<32x32xf32, #map28>
  }
  func @PE0_AIE101(%arg0: memref<32x32xf32, #map4>, %arg1: memref<32x32xf32, #map30>, %arg2: memref<32x32xf32, #map28>) -> memref<32x32xf32, #map28> {
    %0 = memref.alloc() : memref<32x32xf32, #map28>
    affine.for %arg3 = 0 to 32 {
      affine.for %arg4 = 0 to 32 {
        %1 = affine.load %arg2[%arg3, %arg4] : memref<32x32xf32, #map28>
        affine.store %1, %0[%arg3, %arg4] : memref<32x32xf32, #map28>
      }
    }
    affine.for %arg3 = 0 to 32 {
      affine.for %arg4 = 0 to 32 {
        affine.for %arg5 = 0 to 32 {
          %1 = affine.load %arg0[%arg3, %arg5] : memref<32x32xf32, #map4>
          %2 = affine.load %arg1[%arg5, %arg4] : memref<32x32xf32, #map30>
          %3 = arith.mulf %1, %2 : f32
          %4 = affine.load %0[%arg3, %arg4] : memref<32x32xf32, #map28>
          %5 = arith.addf %4, %3 : f32
          affine.store %5, %0[%arg3, %arg4] : memref<32x32xf32, #map28>
        }
      }
    }
    return %0 : memref<32x32xf32, #map28>
  }
  func @PE0_AIE100(%arg0: memref<32x32xf32, #map6>, %arg1: memref<32x32xf32, #map31>, %arg2: memref<32x32xf32, #map28>) -> memref<32x32xf32, #map28> {
    %0 = memref.alloc() : memref<32x32xf32, #map28>
    affine.for %arg3 = 0 to 32 {
      affine.for %arg4 = 0 to 32 {
        %1 = affine.load %arg2[%arg3, %arg4] : memref<32x32xf32, #map28>
        affine.store %1, %0[%arg3, %arg4] : memref<32x32xf32, #map28>
      }
    }
    affine.for %arg3 = 0 to 32 {
      affine.for %arg4 = 0 to 32 {
        affine.for %arg5 = 0 to 32 {
          %1 = affine.load %arg0[%arg3, %arg5] : memref<32x32xf32, #map6>
          %2 = affine.load %arg1[%arg5, %arg4] : memref<32x32xf32, #map31>
          %3 = arith.mulf %1, %2 : f32
          %4 = affine.load %0[%arg3, %arg4] : memref<32x32xf32, #map28>
          %5 = arith.addf %4, %3 : f32
          affine.store %5, %0[%arg3, %arg4] : memref<32x32xf32, #map28>
        }
      }
    }
    return %0 : memref<32x32xf32, #map28>
  }
  func @PE0_AIE99(%arg0: memref<32x32xf32, #map0>, %arg1: memref<32x32xf32, #map32>, %arg2: memref<32x32xf32, #map32>) -> memref<32x32xf32, #map32> {
    %0 = memref.alloc() : memref<32x32xf32, #map32>
    affine.for %arg3 = 0 to 32 {
      affine.for %arg4 = 0 to 32 {
        %1 = affine.load %arg2[%arg3, %arg4] : memref<32x32xf32, #map32>
        affine.store %1, %0[%arg3, %arg4] : memref<32x32xf32, #map32>
      }
    }
    affine.for %arg3 = 0 to 32 {
      affine.for %arg4 = 0 to 32 {
        affine.for %arg5 = 0 to 32 {
          %1 = affine.load %arg0[%arg3, %arg5] : memref<32x32xf32, #map0>
          %2 = affine.load %arg1[%arg5, %arg4] : memref<32x32xf32, #map32>
          %3 = arith.mulf %1, %2 : f32
          %4 = affine.load %0[%arg3, %arg4] : memref<32x32xf32, #map32>
          %5 = arith.addf %4, %3 : f32
          affine.store %5, %0[%arg3, %arg4] : memref<32x32xf32, #map32>
        }
      }
    }
    return %0 : memref<32x32xf32, #map32>
  }
  func @PE0_AIE98(%arg0: memref<32x32xf32, #map2>, %arg1: memref<32x32xf32, #map33>, %arg2: memref<32x32xf32, #map32>) -> memref<32x32xf32, #map32> {
    %0 = memref.alloc() : memref<32x32xf32, #map32>
    affine.for %arg3 = 0 to 32 {
      affine.for %arg4 = 0 to 32 {
        %1 = affine.load %arg2[%arg3, %arg4] : memref<32x32xf32, #map32>
        affine.store %1, %0[%arg3, %arg4] : memref<32x32xf32, #map32>
      }
    }
    affine.for %arg3 = 0 to 32 {
      affine.for %arg4 = 0 to 32 {
        affine.for %arg5 = 0 to 32 {
          %1 = affine.load %arg0[%arg3, %arg5] : memref<32x32xf32, #map2>
          %2 = affine.load %arg1[%arg5, %arg4] : memref<32x32xf32, #map33>
          %3 = arith.mulf %1, %2 : f32
          %4 = affine.load %0[%arg3, %arg4] : memref<32x32xf32, #map32>
          %5 = arith.addf %4, %3 : f32
          affine.store %5, %0[%arg3, %arg4] : memref<32x32xf32, #map32>
        }
      }
    }
    return %0 : memref<32x32xf32, #map32>
  }
  func @PE0_AIE97(%arg0: memref<32x32xf32, #map4>, %arg1: memref<32x32xf32, #map34>, %arg2: memref<32x32xf32, #map32>) -> memref<32x32xf32, #map32> {
    %0 = memref.alloc() : memref<32x32xf32, #map32>
    affine.for %arg3 = 0 to 32 {
      affine.for %arg4 = 0 to 32 {
        %1 = affine.load %arg2[%arg3, %arg4] : memref<32x32xf32, #map32>
        affine.store %1, %0[%arg3, %arg4] : memref<32x32xf32, #map32>
      }
    }
    affine.for %arg3 = 0 to 32 {
      affine.for %arg4 = 0 to 32 {
        affine.for %arg5 = 0 to 32 {
          %1 = affine.load %arg0[%arg3, %arg5] : memref<32x32xf32, #map4>
          %2 = affine.load %arg1[%arg5, %arg4] : memref<32x32xf32, #map34>
          %3 = arith.mulf %1, %2 : f32
          %4 = affine.load %0[%arg3, %arg4] : memref<32x32xf32, #map32>
          %5 = arith.addf %4, %3 : f32
          affine.store %5, %0[%arg3, %arg4] : memref<32x32xf32, #map32>
        }
      }
    }
    return %0 : memref<32x32xf32, #map32>
  }
  func @PE0_AIE96(%arg0: memref<32x32xf32, #map6>, %arg1: memref<32x32xf32, #map35>, %arg2: memref<32x32xf32, #map32>) -> memref<32x32xf32, #map32> {
    %0 = memref.alloc() : memref<32x32xf32, #map32>
    affine.for %arg3 = 0 to 32 {
      affine.for %arg4 = 0 to 32 {
        %1 = affine.load %arg2[%arg3, %arg4] : memref<32x32xf32, #map32>
        affine.store %1, %0[%arg3, %arg4] : memref<32x32xf32, #map32>
      }
    }
    affine.for %arg3 = 0 to 32 {
      affine.for %arg4 = 0 to 32 {
        affine.for %arg5 = 0 to 32 {
          %1 = affine.load %arg0[%arg3, %arg5] : memref<32x32xf32, #map6>
          %2 = affine.load %arg1[%arg5, %arg4] : memref<32x32xf32, #map35>
          %3 = arith.mulf %1, %2 : f32
          %4 = affine.load %0[%arg3, %arg4] : memref<32x32xf32, #map32>
          %5 = arith.addf %4, %3 : f32
          affine.store %5, %0[%arg3, %arg4] : memref<32x32xf32, #map32>
        }
      }
    }
    return %0 : memref<32x32xf32, #map32>
  }
  func @PE0_AIE95(%arg0: memref<32x32xf32, #map36>, %arg1: memref<32x32xf32, #map1>, %arg2: memref<32x32xf32, #map3>) -> memref<32x32xf32, #map3> {
    %0 = memref.alloc() : memref<32x32xf32, #map3>
    affine.for %arg3 = 0 to 32 {
      affine.for %arg4 = 0 to 32 {
        %1 = affine.load %arg2[%arg3, %arg4] : memref<32x32xf32, #map3>
        affine.store %1, %0[%arg3, %arg4] : memref<32x32xf32, #map3>
      }
    }
    affine.for %arg3 = 0 to 32 {
      affine.for %arg4 = 0 to 32 {
        affine.for %arg5 = 0 to 32 {
          %1 = affine.load %arg0[%arg3, %arg5] : memref<32x32xf32, #map36>
          %2 = affine.load %arg1[%arg5, %arg4] : memref<32x32xf32, #map1>
          %3 = arith.mulf %1, %2 : f32
          %4 = affine.load %0[%arg3, %arg4] : memref<32x32xf32, #map3>
          %5 = arith.addf %4, %3 : f32
          affine.store %5, %0[%arg3, %arg4] : memref<32x32xf32, #map3>
        }
      }
    }
    return %0 : memref<32x32xf32, #map3>
  }
  func @PE0_AIE94(%arg0: memref<32x32xf32, #map37>, %arg1: memref<32x32xf32, #map3>, %arg2: memref<32x32xf32, #map3>) -> memref<32x32xf32, #map3> {
    %0 = memref.alloc() : memref<32x32xf32, #map3>
    affine.for %arg3 = 0 to 32 {
      affine.for %arg4 = 0 to 32 {
        %1 = affine.load %arg2[%arg3, %arg4] : memref<32x32xf32, #map3>
        affine.store %1, %0[%arg3, %arg4] : memref<32x32xf32, #map3>
      }
    }
    affine.for %arg3 = 0 to 32 {
      affine.for %arg4 = 0 to 32 {
        affine.for %arg5 = 0 to 32 {
          %1 = affine.load %arg0[%arg3, %arg5] : memref<32x32xf32, #map37>
          %2 = affine.load %arg1[%arg5, %arg4] : memref<32x32xf32, #map3>
          %3 = arith.mulf %1, %2 : f32
          %4 = affine.load %0[%arg3, %arg4] : memref<32x32xf32, #map3>
          %5 = arith.addf %4, %3 : f32
          affine.store %5, %0[%arg3, %arg4] : memref<32x32xf32, #map3>
        }
      }
    }
    return %0 : memref<32x32xf32, #map3>
  }
  func @PE0_AIE93(%arg0: memref<32x32xf32, #map38>, %arg1: memref<32x32xf32, #map5>, %arg2: memref<32x32xf32, #map3>) -> memref<32x32xf32, #map3> {
    %0 = memref.alloc() : memref<32x32xf32, #map3>
    affine.for %arg3 = 0 to 32 {
      affine.for %arg4 = 0 to 32 {
        %1 = affine.load %arg2[%arg3, %arg4] : memref<32x32xf32, #map3>
        affine.store %1, %0[%arg3, %arg4] : memref<32x32xf32, #map3>
      }
    }
    affine.for %arg3 = 0 to 32 {
      affine.for %arg4 = 0 to 32 {
        affine.for %arg5 = 0 to 32 {
          %1 = affine.load %arg0[%arg3, %arg5] : memref<32x32xf32, #map38>
          %2 = affine.load %arg1[%arg5, %arg4] : memref<32x32xf32, #map5>
          %3 = arith.mulf %1, %2 : f32
          %4 = affine.load %0[%arg3, %arg4] : memref<32x32xf32, #map3>
          %5 = arith.addf %4, %3 : f32
          affine.store %5, %0[%arg3, %arg4] : memref<32x32xf32, #map3>
        }
      }
    }
    return %0 : memref<32x32xf32, #map3>
  }
  func @PE0_AIE92(%arg0: memref<32x32xf32, #map39>, %arg1: memref<32x32xf32, #map7>, %arg2: memref<32x32xf32, #map3>) -> memref<32x32xf32, #map3> {
    %0 = memref.alloc() : memref<32x32xf32, #map3>
    affine.for %arg3 = 0 to 32 {
      affine.for %arg4 = 0 to 32 {
        %1 = affine.load %arg2[%arg3, %arg4] : memref<32x32xf32, #map3>
        affine.store %1, %0[%arg3, %arg4] : memref<32x32xf32, #map3>
      }
    }
    affine.for %arg3 = 0 to 32 {
      affine.for %arg4 = 0 to 32 {
        affine.for %arg5 = 0 to 32 {
          %1 = affine.load %arg0[%arg3, %arg5] : memref<32x32xf32, #map39>
          %2 = affine.load %arg1[%arg5, %arg4] : memref<32x32xf32, #map7>
          %3 = arith.mulf %1, %2 : f32
          %4 = affine.load %0[%arg3, %arg4] : memref<32x32xf32, #map3>
          %5 = arith.addf %4, %3 : f32
          affine.store %5, %0[%arg3, %arg4] : memref<32x32xf32, #map3>
        }
      }
    }
    return %0 : memref<32x32xf32, #map3>
  }
  func @PE0_AIE91(%arg0: memref<32x32xf32, #map36>, %arg1: memref<32x32xf32, #map8>, %arg2: memref<32x32xf32, #map9>) -> memref<32x32xf32, #map9> {
    %0 = memref.alloc() : memref<32x32xf32, #map9>
    affine.for %arg3 = 0 to 32 {
      affine.for %arg4 = 0 to 32 {
        %1 = affine.load %arg2[%arg3, %arg4] : memref<32x32xf32, #map9>
        affine.store %1, %0[%arg3, %arg4] : memref<32x32xf32, #map9>
      }
    }
    affine.for %arg3 = 0 to 32 {
      affine.for %arg4 = 0 to 32 {
        affine.for %arg5 = 0 to 32 {
          %1 = affine.load %arg0[%arg3, %arg5] : memref<32x32xf32, #map36>
          %2 = affine.load %arg1[%arg5, %arg4] : memref<32x32xf32, #map8>
          %3 = arith.mulf %1, %2 : f32
          %4 = affine.load %0[%arg3, %arg4] : memref<32x32xf32, #map9>
          %5 = arith.addf %4, %3 : f32
          affine.store %5, %0[%arg3, %arg4] : memref<32x32xf32, #map9>
        }
      }
    }
    return %0 : memref<32x32xf32, #map9>
  }
  func @PE0_AIE90(%arg0: memref<32x32xf32, #map37>, %arg1: memref<32x32xf32, #map9>, %arg2: memref<32x32xf32, #map9>) -> memref<32x32xf32, #map9> {
    %0 = memref.alloc() : memref<32x32xf32, #map9>
    affine.for %arg3 = 0 to 32 {
      affine.for %arg4 = 0 to 32 {
        %1 = affine.load %arg2[%arg3, %arg4] : memref<32x32xf32, #map9>
        affine.store %1, %0[%arg3, %arg4] : memref<32x32xf32, #map9>
      }
    }
    affine.for %arg3 = 0 to 32 {
      affine.for %arg4 = 0 to 32 {
        affine.for %arg5 = 0 to 32 {
          %1 = affine.load %arg0[%arg3, %arg5] : memref<32x32xf32, #map37>
          %2 = affine.load %arg1[%arg5, %arg4] : memref<32x32xf32, #map9>
          %3 = arith.mulf %1, %2 : f32
          %4 = affine.load %0[%arg3, %arg4] : memref<32x32xf32, #map9>
          %5 = arith.addf %4, %3 : f32
          affine.store %5, %0[%arg3, %arg4] : memref<32x32xf32, #map9>
        }
      }
    }
    return %0 : memref<32x32xf32, #map9>
  }
  func @PE0_AIE89(%arg0: memref<32x32xf32, #map38>, %arg1: memref<32x32xf32, #map10>, %arg2: memref<32x32xf32, #map9>) -> memref<32x32xf32, #map9> {
    %0 = memref.alloc() : memref<32x32xf32, #map9>
    affine.for %arg3 = 0 to 32 {
      affine.for %arg4 = 0 to 32 {
        %1 = affine.load %arg2[%arg3, %arg4] : memref<32x32xf32, #map9>
        affine.store %1, %0[%arg3, %arg4] : memref<32x32xf32, #map9>
      }
    }
    affine.for %arg3 = 0 to 32 {
      affine.for %arg4 = 0 to 32 {
        affine.for %arg5 = 0 to 32 {
          %1 = affine.load %arg0[%arg3, %arg5] : memref<32x32xf32, #map38>
          %2 = affine.load %arg1[%arg5, %arg4] : memref<32x32xf32, #map10>
          %3 = arith.mulf %1, %2 : f32
          %4 = affine.load %0[%arg3, %arg4] : memref<32x32xf32, #map9>
          %5 = arith.addf %4, %3 : f32
          affine.store %5, %0[%arg3, %arg4] : memref<32x32xf32, #map9>
        }
      }
    }
    return %0 : memref<32x32xf32, #map9>
  }
  func @PE0_AIE88(%arg0: memref<32x32xf32, #map39>, %arg1: memref<32x32xf32, #map11>, %arg2: memref<32x32xf32, #map9>) -> memref<32x32xf32, #map9> {
    %0 = memref.alloc() : memref<32x32xf32, #map9>
    affine.for %arg3 = 0 to 32 {
      affine.for %arg4 = 0 to 32 {
        %1 = affine.load %arg2[%arg3, %arg4] : memref<32x32xf32, #map9>
        affine.store %1, %0[%arg3, %arg4] : memref<32x32xf32, #map9>
      }
    }
    affine.for %arg3 = 0 to 32 {
      affine.for %arg4 = 0 to 32 {
        affine.for %arg5 = 0 to 32 {
          %1 = affine.load %arg0[%arg3, %arg5] : memref<32x32xf32, #map39>
          %2 = affine.load %arg1[%arg5, %arg4] : memref<32x32xf32, #map11>
          %3 = arith.mulf %1, %2 : f32
          %4 = affine.load %0[%arg3, %arg4] : memref<32x32xf32, #map9>
          %5 = arith.addf %4, %3 : f32
          affine.store %5, %0[%arg3, %arg4] : memref<32x32xf32, #map9>
        }
      }
    }
    return %0 : memref<32x32xf32, #map9>
  }
  func @PE0_AIE87(%arg0: memref<32x32xf32, #map36>, %arg1: memref<32x32xf32, #map12>, %arg2: memref<32x32xf32, #map13>) -> memref<32x32xf32, #map13> {
    %0 = memref.alloc() : memref<32x32xf32, #map13>
    affine.for %arg3 = 0 to 32 {
      affine.for %arg4 = 0 to 32 {
        %1 = affine.load %arg2[%arg3, %arg4] : memref<32x32xf32, #map13>
        affine.store %1, %0[%arg3, %arg4] : memref<32x32xf32, #map13>
      }
    }
    affine.for %arg3 = 0 to 32 {
      affine.for %arg4 = 0 to 32 {
        affine.for %arg5 = 0 to 32 {
          %1 = affine.load %arg0[%arg3, %arg5] : memref<32x32xf32, #map36>
          %2 = affine.load %arg1[%arg5, %arg4] : memref<32x32xf32, #map12>
          %3 = arith.mulf %1, %2 : f32
          %4 = affine.load %0[%arg3, %arg4] : memref<32x32xf32, #map13>
          %5 = arith.addf %4, %3 : f32
          affine.store %5, %0[%arg3, %arg4] : memref<32x32xf32, #map13>
        }
      }
    }
    return %0 : memref<32x32xf32, #map13>
  }
  func @PE0_AIE86(%arg0: memref<32x32xf32, #map37>, %arg1: memref<32x32xf32, #map13>, %arg2: memref<32x32xf32, #map13>) -> memref<32x32xf32, #map13> {
    %0 = memref.alloc() : memref<32x32xf32, #map13>
    affine.for %arg3 = 0 to 32 {
      affine.for %arg4 = 0 to 32 {
        %1 = affine.load %arg2[%arg3, %arg4] : memref<32x32xf32, #map13>
        affine.store %1, %0[%arg3, %arg4] : memref<32x32xf32, #map13>
      }
    }
    affine.for %arg3 = 0 to 32 {
      affine.for %arg4 = 0 to 32 {
        affine.for %arg5 = 0 to 32 {
          %1 = affine.load %arg0[%arg3, %arg5] : memref<32x32xf32, #map37>
          %2 = affine.load %arg1[%arg5, %arg4] : memref<32x32xf32, #map13>
          %3 = arith.mulf %1, %2 : f32
          %4 = affine.load %0[%arg3, %arg4] : memref<32x32xf32, #map13>
          %5 = arith.addf %4, %3 : f32
          affine.store %5, %0[%arg3, %arg4] : memref<32x32xf32, #map13>
        }
      }
    }
    return %0 : memref<32x32xf32, #map13>
  }
  func @PE0_AIE85(%arg0: memref<32x32xf32, #map38>, %arg1: memref<32x32xf32, #map14>, %arg2: memref<32x32xf32, #map13>) -> memref<32x32xf32, #map13> {
    %0 = memref.alloc() : memref<32x32xf32, #map13>
    affine.for %arg3 = 0 to 32 {
      affine.for %arg4 = 0 to 32 {
        %1 = affine.load %arg2[%arg3, %arg4] : memref<32x32xf32, #map13>
        affine.store %1, %0[%arg3, %arg4] : memref<32x32xf32, #map13>
      }
    }
    affine.for %arg3 = 0 to 32 {
      affine.for %arg4 = 0 to 32 {
        affine.for %arg5 = 0 to 32 {
          %1 = affine.load %arg0[%arg3, %arg5] : memref<32x32xf32, #map38>
          %2 = affine.load %arg1[%arg5, %arg4] : memref<32x32xf32, #map14>
          %3 = arith.mulf %1, %2 : f32
          %4 = affine.load %0[%arg3, %arg4] : memref<32x32xf32, #map13>
          %5 = arith.addf %4, %3 : f32
          affine.store %5, %0[%arg3, %arg4] : memref<32x32xf32, #map13>
        }
      }
    }
    return %0 : memref<32x32xf32, #map13>
  }
  func @PE0_AIE84(%arg0: memref<32x32xf32, #map39>, %arg1: memref<32x32xf32, #map15>, %arg2: memref<32x32xf32, #map13>) -> memref<32x32xf32, #map13> {
    %0 = memref.alloc() : memref<32x32xf32, #map13>
    affine.for %arg3 = 0 to 32 {
      affine.for %arg4 = 0 to 32 {
        %1 = affine.load %arg2[%arg3, %arg4] : memref<32x32xf32, #map13>
        affine.store %1, %0[%arg3, %arg4] : memref<32x32xf32, #map13>
      }
    }
    affine.for %arg3 = 0 to 32 {
      affine.for %arg4 = 0 to 32 {
        affine.for %arg5 = 0 to 32 {
          %1 = affine.load %arg0[%arg3, %arg5] : memref<32x32xf32, #map39>
          %2 = affine.load %arg1[%arg5, %arg4] : memref<32x32xf32, #map15>
          %3 = arith.mulf %1, %2 : f32
          %4 = affine.load %0[%arg3, %arg4] : memref<32x32xf32, #map13>
          %5 = arith.addf %4, %3 : f32
          affine.store %5, %0[%arg3, %arg4] : memref<32x32xf32, #map13>
        }
      }
    }
    return %0 : memref<32x32xf32, #map13>
  }
  func @PE0_AIE83(%arg0: memref<32x32xf32, #map36>, %arg1: memref<32x32xf32, #map16>, %arg2: memref<32x32xf32, #map17>) -> memref<32x32xf32, #map17> {
    %0 = memref.alloc() : memref<32x32xf32, #map17>
    affine.for %arg3 = 0 to 32 {
      affine.for %arg4 = 0 to 32 {
        %1 = affine.load %arg2[%arg3, %arg4] : memref<32x32xf32, #map17>
        affine.store %1, %0[%arg3, %arg4] : memref<32x32xf32, #map17>
      }
    }
    affine.for %arg3 = 0 to 32 {
      affine.for %arg4 = 0 to 32 {
        affine.for %arg5 = 0 to 32 {
          %1 = affine.load %arg0[%arg3, %arg5] : memref<32x32xf32, #map36>
          %2 = affine.load %arg1[%arg5, %arg4] : memref<32x32xf32, #map16>
          %3 = arith.mulf %1, %2 : f32
          %4 = affine.load %0[%arg3, %arg4] : memref<32x32xf32, #map17>
          %5 = arith.addf %4, %3 : f32
          affine.store %5, %0[%arg3, %arg4] : memref<32x32xf32, #map17>
        }
      }
    }
    return %0 : memref<32x32xf32, #map17>
  }
  func @PE0_AIE82(%arg0: memref<32x32xf32, #map37>, %arg1: memref<32x32xf32, #map17>, %arg2: memref<32x32xf32, #map17>) -> memref<32x32xf32, #map17> {
    %0 = memref.alloc() : memref<32x32xf32, #map17>
    affine.for %arg3 = 0 to 32 {
      affine.for %arg4 = 0 to 32 {
        %1 = affine.load %arg2[%arg3, %arg4] : memref<32x32xf32, #map17>
        affine.store %1, %0[%arg3, %arg4] : memref<32x32xf32, #map17>
      }
    }
    affine.for %arg3 = 0 to 32 {
      affine.for %arg4 = 0 to 32 {
        affine.for %arg5 = 0 to 32 {
          %1 = affine.load %arg0[%arg3, %arg5] : memref<32x32xf32, #map37>
          %2 = affine.load %arg1[%arg5, %arg4] : memref<32x32xf32, #map17>
          %3 = arith.mulf %1, %2 : f32
          %4 = affine.load %0[%arg3, %arg4] : memref<32x32xf32, #map17>
          %5 = arith.addf %4, %3 : f32
          affine.store %5, %0[%arg3, %arg4] : memref<32x32xf32, #map17>
        }
      }
    }
    return %0 : memref<32x32xf32, #map17>
  }
  func @PE0_AIE81(%arg0: memref<32x32xf32, #map38>, %arg1: memref<32x32xf32, #map18>, %arg2: memref<32x32xf32, #map17>) -> memref<32x32xf32, #map17> {
    %0 = memref.alloc() : memref<32x32xf32, #map17>
    affine.for %arg3 = 0 to 32 {
      affine.for %arg4 = 0 to 32 {
        %1 = affine.load %arg2[%arg3, %arg4] : memref<32x32xf32, #map17>
        affine.store %1, %0[%arg3, %arg4] : memref<32x32xf32, #map17>
      }
    }
    affine.for %arg3 = 0 to 32 {
      affine.for %arg4 = 0 to 32 {
        affine.for %arg5 = 0 to 32 {
          %1 = affine.load %arg0[%arg3, %arg5] : memref<32x32xf32, #map38>
          %2 = affine.load %arg1[%arg5, %arg4] : memref<32x32xf32, #map18>
          %3 = arith.mulf %1, %2 : f32
          %4 = affine.load %0[%arg3, %arg4] : memref<32x32xf32, #map17>
          %5 = arith.addf %4, %3 : f32
          affine.store %5, %0[%arg3, %arg4] : memref<32x32xf32, #map17>
        }
      }
    }
    return %0 : memref<32x32xf32, #map17>
  }
  func @PE0_AIE80(%arg0: memref<32x32xf32, #map39>, %arg1: memref<32x32xf32, #map19>, %arg2: memref<32x32xf32, #map17>) -> memref<32x32xf32, #map17> {
    %0 = memref.alloc() : memref<32x32xf32, #map17>
    affine.for %arg3 = 0 to 32 {
      affine.for %arg4 = 0 to 32 {
        %1 = affine.load %arg2[%arg3, %arg4] : memref<32x32xf32, #map17>
        affine.store %1, %0[%arg3, %arg4] : memref<32x32xf32, #map17>
      }
    }
    affine.for %arg3 = 0 to 32 {
      affine.for %arg4 = 0 to 32 {
        affine.for %arg5 = 0 to 32 {
          %1 = affine.load %arg0[%arg3, %arg5] : memref<32x32xf32, #map39>
          %2 = affine.load %arg1[%arg5, %arg4] : memref<32x32xf32, #map19>
          %3 = arith.mulf %1, %2 : f32
          %4 = affine.load %0[%arg3, %arg4] : memref<32x32xf32, #map17>
          %5 = arith.addf %4, %3 : f32
          affine.store %5, %0[%arg3, %arg4] : memref<32x32xf32, #map17>
        }
      }
    }
    return %0 : memref<32x32xf32, #map17>
  }
  func @PE0_AIE79(%arg0: memref<32x32xf32, #map36>, %arg1: memref<32x32xf32, #map20>, %arg2: memref<32x32xf32, #map21>) -> memref<32x32xf32, #map21> {
    %0 = memref.alloc() : memref<32x32xf32, #map21>
    affine.for %arg3 = 0 to 32 {
      affine.for %arg4 = 0 to 32 {
        %1 = affine.load %arg2[%arg3, %arg4] : memref<32x32xf32, #map21>
        affine.store %1, %0[%arg3, %arg4] : memref<32x32xf32, #map21>
      }
    }
    affine.for %arg3 = 0 to 32 {
      affine.for %arg4 = 0 to 32 {
        affine.for %arg5 = 0 to 32 {
          %1 = affine.load %arg0[%arg3, %arg5] : memref<32x32xf32, #map36>
          %2 = affine.load %arg1[%arg5, %arg4] : memref<32x32xf32, #map20>
          %3 = arith.mulf %1, %2 : f32
          %4 = affine.load %0[%arg3, %arg4] : memref<32x32xf32, #map21>
          %5 = arith.addf %4, %3 : f32
          affine.store %5, %0[%arg3, %arg4] : memref<32x32xf32, #map21>
        }
      }
    }
    return %0 : memref<32x32xf32, #map21>
  }
  func @PE0_AIE78(%arg0: memref<32x32xf32, #map37>, %arg1: memref<32x32xf32, #map21>, %arg2: memref<32x32xf32, #map21>) -> memref<32x32xf32, #map21> {
    %0 = memref.alloc() : memref<32x32xf32, #map21>
    affine.for %arg3 = 0 to 32 {
      affine.for %arg4 = 0 to 32 {
        %1 = affine.load %arg2[%arg3, %arg4] : memref<32x32xf32, #map21>
        affine.store %1, %0[%arg3, %arg4] : memref<32x32xf32, #map21>
      }
    }
    affine.for %arg3 = 0 to 32 {
      affine.for %arg4 = 0 to 32 {
        affine.for %arg5 = 0 to 32 {
          %1 = affine.load %arg0[%arg3, %arg5] : memref<32x32xf32, #map37>
          %2 = affine.load %arg1[%arg5, %arg4] : memref<32x32xf32, #map21>
          %3 = arith.mulf %1, %2 : f32
          %4 = affine.load %0[%arg3, %arg4] : memref<32x32xf32, #map21>
          %5 = arith.addf %4, %3 : f32
          affine.store %5, %0[%arg3, %arg4] : memref<32x32xf32, #map21>
        }
      }
    }
    return %0 : memref<32x32xf32, #map21>
  }
  func @PE0_AIE77(%arg0: memref<32x32xf32, #map38>, %arg1: memref<32x32xf32, #map22>, %arg2: memref<32x32xf32, #map21>) -> memref<32x32xf32, #map21> {
    %0 = memref.alloc() : memref<32x32xf32, #map21>
    affine.for %arg3 = 0 to 32 {
      affine.for %arg4 = 0 to 32 {
        %1 = affine.load %arg2[%arg3, %arg4] : memref<32x32xf32, #map21>
        affine.store %1, %0[%arg3, %arg4] : memref<32x32xf32, #map21>
      }
    }
    affine.for %arg3 = 0 to 32 {
      affine.for %arg4 = 0 to 32 {
        affine.for %arg5 = 0 to 32 {
          %1 = affine.load %arg0[%arg3, %arg5] : memref<32x32xf32, #map38>
          %2 = affine.load %arg1[%arg5, %arg4] : memref<32x32xf32, #map22>
          %3 = arith.mulf %1, %2 : f32
          %4 = affine.load %0[%arg3, %arg4] : memref<32x32xf32, #map21>
          %5 = arith.addf %4, %3 : f32
          affine.store %5, %0[%arg3, %arg4] : memref<32x32xf32, #map21>
        }
      }
    }
    return %0 : memref<32x32xf32, #map21>
  }
  func @PE0_AIE76(%arg0: memref<32x32xf32, #map39>, %arg1: memref<32x32xf32, #map23>, %arg2: memref<32x32xf32, #map21>) -> memref<32x32xf32, #map21> {
    %0 = memref.alloc() : memref<32x32xf32, #map21>
    affine.for %arg3 = 0 to 32 {
      affine.for %arg4 = 0 to 32 {
        %1 = affine.load %arg2[%arg3, %arg4] : memref<32x32xf32, #map21>
        affine.store %1, %0[%arg3, %arg4] : memref<32x32xf32, #map21>
      }
    }
    affine.for %arg3 = 0 to 32 {
      affine.for %arg4 = 0 to 32 {
        affine.for %arg5 = 0 to 32 {
          %1 = affine.load %arg0[%arg3, %arg5] : memref<32x32xf32, #map39>
          %2 = affine.load %arg1[%arg5, %arg4] : memref<32x32xf32, #map23>
          %3 = arith.mulf %1, %2 : f32
          %4 = affine.load %0[%arg3, %arg4] : memref<32x32xf32, #map21>
          %5 = arith.addf %4, %3 : f32
          affine.store %5, %0[%arg3, %arg4] : memref<32x32xf32, #map21>
        }
      }
    }
    return %0 : memref<32x32xf32, #map21>
  }
  func @PE0_AIE75(%arg0: memref<32x32xf32, #map36>, %arg1: memref<32x32xf32, #map24>, %arg2: memref<32x32xf32, #map25>) -> memref<32x32xf32, #map25> {
    %0 = memref.alloc() : memref<32x32xf32, #map25>
    affine.for %arg3 = 0 to 32 {
      affine.for %arg4 = 0 to 32 {
        %1 = affine.load %arg2[%arg3, %arg4] : memref<32x32xf32, #map25>
        affine.store %1, %0[%arg3, %arg4] : memref<32x32xf32, #map25>
      }
    }
    affine.for %arg3 = 0 to 32 {
      affine.for %arg4 = 0 to 32 {
        affine.for %arg5 = 0 to 32 {
          %1 = affine.load %arg0[%arg3, %arg5] : memref<32x32xf32, #map36>
          %2 = affine.load %arg1[%arg5, %arg4] : memref<32x32xf32, #map24>
          %3 = arith.mulf %1, %2 : f32
          %4 = affine.load %0[%arg3, %arg4] : memref<32x32xf32, #map25>
          %5 = arith.addf %4, %3 : f32
          affine.store %5, %0[%arg3, %arg4] : memref<32x32xf32, #map25>
        }
      }
    }
    return %0 : memref<32x32xf32, #map25>
  }
  func @PE0_AIE74(%arg0: memref<32x32xf32, #map37>, %arg1: memref<32x32xf32, #map25>, %arg2: memref<32x32xf32, #map25>) -> memref<32x32xf32, #map25> {
    %0 = memref.alloc() : memref<32x32xf32, #map25>
    affine.for %arg3 = 0 to 32 {
      affine.for %arg4 = 0 to 32 {
        %1 = affine.load %arg2[%arg3, %arg4] : memref<32x32xf32, #map25>
        affine.store %1, %0[%arg3, %arg4] : memref<32x32xf32, #map25>
      }
    }
    affine.for %arg3 = 0 to 32 {
      affine.for %arg4 = 0 to 32 {
        affine.for %arg5 = 0 to 32 {
          %1 = affine.load %arg0[%arg3, %arg5] : memref<32x32xf32, #map37>
          %2 = affine.load %arg1[%arg5, %arg4] : memref<32x32xf32, #map25>
          %3 = arith.mulf %1, %2 : f32
          %4 = affine.load %0[%arg3, %arg4] : memref<32x32xf32, #map25>
          %5 = arith.addf %4, %3 : f32
          affine.store %5, %0[%arg3, %arg4] : memref<32x32xf32, #map25>
        }
      }
    }
    return %0 : memref<32x32xf32, #map25>
  }
  func @PE0_AIE73(%arg0: memref<32x32xf32, #map38>, %arg1: memref<32x32xf32, #map26>, %arg2: memref<32x32xf32, #map25>) -> memref<32x32xf32, #map25> {
    %0 = memref.alloc() : memref<32x32xf32, #map25>
    affine.for %arg3 = 0 to 32 {
      affine.for %arg4 = 0 to 32 {
        %1 = affine.load %arg2[%arg3, %arg4] : memref<32x32xf32, #map25>
        affine.store %1, %0[%arg3, %arg4] : memref<32x32xf32, #map25>
      }
    }
    affine.for %arg3 = 0 to 32 {
      affine.for %arg4 = 0 to 32 {
        affine.for %arg5 = 0 to 32 {
          %1 = affine.load %arg0[%arg3, %arg5] : memref<32x32xf32, #map38>
          %2 = affine.load %arg1[%arg5, %arg4] : memref<32x32xf32, #map26>
          %3 = arith.mulf %1, %2 : f32
          %4 = affine.load %0[%arg3, %arg4] : memref<32x32xf32, #map25>
          %5 = arith.addf %4, %3 : f32
          affine.store %5, %0[%arg3, %arg4] : memref<32x32xf32, #map25>
        }
      }
    }
    return %0 : memref<32x32xf32, #map25>
  }
  func @PE0_AIE72(%arg0: memref<32x32xf32, #map39>, %arg1: memref<32x32xf32, #map27>, %arg2: memref<32x32xf32, #map25>) -> memref<32x32xf32, #map25> {
    %0 = memref.alloc() : memref<32x32xf32, #map25>
    affine.for %arg3 = 0 to 32 {
      affine.for %arg4 = 0 to 32 {
        %1 = affine.load %arg2[%arg3, %arg4] : memref<32x32xf32, #map25>
        affine.store %1, %0[%arg3, %arg4] : memref<32x32xf32, #map25>
      }
    }
    affine.for %arg3 = 0 to 32 {
      affine.for %arg4 = 0 to 32 {
        affine.for %arg5 = 0 to 32 {
          %1 = affine.load %arg0[%arg3, %arg5] : memref<32x32xf32, #map39>
          %2 = affine.load %arg1[%arg5, %arg4] : memref<32x32xf32, #map27>
          %3 = arith.mulf %1, %2 : f32
          %4 = affine.load %0[%arg3, %arg4] : memref<32x32xf32, #map25>
          %5 = arith.addf %4, %3 : f32
          affine.store %5, %0[%arg3, %arg4] : memref<32x32xf32, #map25>
        }
      }
    }
    return %0 : memref<32x32xf32, #map25>
  }
  func @PE0_AIE71(%arg0: memref<32x32xf32, #map36>, %arg1: memref<32x32xf32, #map28>, %arg2: memref<32x32xf32, #map29>) -> memref<32x32xf32, #map29> {
    %0 = memref.alloc() : memref<32x32xf32, #map29>
    affine.for %arg3 = 0 to 32 {
      affine.for %arg4 = 0 to 32 {
        %1 = affine.load %arg2[%arg3, %arg4] : memref<32x32xf32, #map29>
        affine.store %1, %0[%arg3, %arg4] : memref<32x32xf32, #map29>
      }
    }
    affine.for %arg3 = 0 to 32 {
      affine.for %arg4 = 0 to 32 {
        affine.for %arg5 = 0 to 32 {
          %1 = affine.load %arg0[%arg3, %arg5] : memref<32x32xf32, #map36>
          %2 = affine.load %arg1[%arg5, %arg4] : memref<32x32xf32, #map28>
          %3 = arith.mulf %1, %2 : f32
          %4 = affine.load %0[%arg3, %arg4] : memref<32x32xf32, #map29>
          %5 = arith.addf %4, %3 : f32
          affine.store %5, %0[%arg3, %arg4] : memref<32x32xf32, #map29>
        }
      }
    }
    return %0 : memref<32x32xf32, #map29>
  }
  func @PE0_AIE70(%arg0: memref<32x32xf32, #map37>, %arg1: memref<32x32xf32, #map29>, %arg2: memref<32x32xf32, #map29>) -> memref<32x32xf32, #map29> {
    %0 = memref.alloc() : memref<32x32xf32, #map29>
    affine.for %arg3 = 0 to 32 {
      affine.for %arg4 = 0 to 32 {
        %1 = affine.load %arg2[%arg3, %arg4] : memref<32x32xf32, #map29>
        affine.store %1, %0[%arg3, %arg4] : memref<32x32xf32, #map29>
      }
    }
    affine.for %arg3 = 0 to 32 {
      affine.for %arg4 = 0 to 32 {
        affine.for %arg5 = 0 to 32 {
          %1 = affine.load %arg0[%arg3, %arg5] : memref<32x32xf32, #map37>
          %2 = affine.load %arg1[%arg5, %arg4] : memref<32x32xf32, #map29>
          %3 = arith.mulf %1, %2 : f32
          %4 = affine.load %0[%arg3, %arg4] : memref<32x32xf32, #map29>
          %5 = arith.addf %4, %3 : f32
          affine.store %5, %0[%arg3, %arg4] : memref<32x32xf32, #map29>
        }
      }
    }
    return %0 : memref<32x32xf32, #map29>
  }
  func @PE0_AIE69(%arg0: memref<32x32xf32, #map38>, %arg1: memref<32x32xf32, #map30>, %arg2: memref<32x32xf32, #map29>) -> memref<32x32xf32, #map29> {
    %0 = memref.alloc() : memref<32x32xf32, #map29>
    affine.for %arg3 = 0 to 32 {
      affine.for %arg4 = 0 to 32 {
        %1 = affine.load %arg2[%arg3, %arg4] : memref<32x32xf32, #map29>
        affine.store %1, %0[%arg3, %arg4] : memref<32x32xf32, #map29>
      }
    }
    affine.for %arg3 = 0 to 32 {
      affine.for %arg4 = 0 to 32 {
        affine.for %arg5 = 0 to 32 {
          %1 = affine.load %arg0[%arg3, %arg5] : memref<32x32xf32, #map38>
          %2 = affine.load %arg1[%arg5, %arg4] : memref<32x32xf32, #map30>
          %3 = arith.mulf %1, %2 : f32
          %4 = affine.load %0[%arg3, %arg4] : memref<32x32xf32, #map29>
          %5 = arith.addf %4, %3 : f32
          affine.store %5, %0[%arg3, %arg4] : memref<32x32xf32, #map29>
        }
      }
    }
    return %0 : memref<32x32xf32, #map29>
  }
  func @PE0_AIE68(%arg0: memref<32x32xf32, #map39>, %arg1: memref<32x32xf32, #map31>, %arg2: memref<32x32xf32, #map29>) -> memref<32x32xf32, #map29> {
    %0 = memref.alloc() : memref<32x32xf32, #map29>
    affine.for %arg3 = 0 to 32 {
      affine.for %arg4 = 0 to 32 {
        %1 = affine.load %arg2[%arg3, %arg4] : memref<32x32xf32, #map29>
        affine.store %1, %0[%arg3, %arg4] : memref<32x32xf32, #map29>
      }
    }
    affine.for %arg3 = 0 to 32 {
      affine.for %arg4 = 0 to 32 {
        affine.for %arg5 = 0 to 32 {
          %1 = affine.load %arg0[%arg3, %arg5] : memref<32x32xf32, #map39>
          %2 = affine.load %arg1[%arg5, %arg4] : memref<32x32xf32, #map31>
          %3 = arith.mulf %1, %2 : f32
          %4 = affine.load %0[%arg3, %arg4] : memref<32x32xf32, #map29>
          %5 = arith.addf %4, %3 : f32
          affine.store %5, %0[%arg3, %arg4] : memref<32x32xf32, #map29>
        }
      }
    }
    return %0 : memref<32x32xf32, #map29>
  }
  func @PE0_AIE67(%arg0: memref<32x32xf32, #map36>, %arg1: memref<32x32xf32, #map32>, %arg2: memref<32x32xf32, #map33>) -> memref<32x32xf32, #map33> {
    %0 = memref.alloc() : memref<32x32xf32, #map33>
    affine.for %arg3 = 0 to 32 {
      affine.for %arg4 = 0 to 32 {
        %1 = affine.load %arg2[%arg3, %arg4] : memref<32x32xf32, #map33>
        affine.store %1, %0[%arg3, %arg4] : memref<32x32xf32, #map33>
      }
    }
    affine.for %arg3 = 0 to 32 {
      affine.for %arg4 = 0 to 32 {
        affine.for %arg5 = 0 to 32 {
          %1 = affine.load %arg0[%arg3, %arg5] : memref<32x32xf32, #map36>
          %2 = affine.load %arg1[%arg5, %arg4] : memref<32x32xf32, #map32>
          %3 = arith.mulf %1, %2 : f32
          %4 = affine.load %0[%arg3, %arg4] : memref<32x32xf32, #map33>
          %5 = arith.addf %4, %3 : f32
          affine.store %5, %0[%arg3, %arg4] : memref<32x32xf32, #map33>
        }
      }
    }
    return %0 : memref<32x32xf32, #map33>
  }
  func @PE0_AIE66(%arg0: memref<32x32xf32, #map37>, %arg1: memref<32x32xf32, #map33>, %arg2: memref<32x32xf32, #map33>) -> memref<32x32xf32, #map33> {
    %0 = memref.alloc() : memref<32x32xf32, #map33>
    affine.for %arg3 = 0 to 32 {
      affine.for %arg4 = 0 to 32 {
        %1 = affine.load %arg2[%arg3, %arg4] : memref<32x32xf32, #map33>
        affine.store %1, %0[%arg3, %arg4] : memref<32x32xf32, #map33>
      }
    }
    affine.for %arg3 = 0 to 32 {
      affine.for %arg4 = 0 to 32 {
        affine.for %arg5 = 0 to 32 {
          %1 = affine.load %arg0[%arg3, %arg5] : memref<32x32xf32, #map37>
          %2 = affine.load %arg1[%arg5, %arg4] : memref<32x32xf32, #map33>
          %3 = arith.mulf %1, %2 : f32
          %4 = affine.load %0[%arg3, %arg4] : memref<32x32xf32, #map33>
          %5 = arith.addf %4, %3 : f32
          affine.store %5, %0[%arg3, %arg4] : memref<32x32xf32, #map33>
        }
      }
    }
    return %0 : memref<32x32xf32, #map33>
  }
  func @PE0_AIE65(%arg0: memref<32x32xf32, #map38>, %arg1: memref<32x32xf32, #map34>, %arg2: memref<32x32xf32, #map33>) -> memref<32x32xf32, #map33> {
    %0 = memref.alloc() : memref<32x32xf32, #map33>
    affine.for %arg3 = 0 to 32 {
      affine.for %arg4 = 0 to 32 {
        %1 = affine.load %arg2[%arg3, %arg4] : memref<32x32xf32, #map33>
        affine.store %1, %0[%arg3, %arg4] : memref<32x32xf32, #map33>
      }
    }
    affine.for %arg3 = 0 to 32 {
      affine.for %arg4 = 0 to 32 {
        affine.for %arg5 = 0 to 32 {
          %1 = affine.load %arg0[%arg3, %arg5] : memref<32x32xf32, #map38>
          %2 = affine.load %arg1[%arg5, %arg4] : memref<32x32xf32, #map34>
          %3 = arith.mulf %1, %2 : f32
          %4 = affine.load %0[%arg3, %arg4] : memref<32x32xf32, #map33>
          %5 = arith.addf %4, %3 : f32
          affine.store %5, %0[%arg3, %arg4] : memref<32x32xf32, #map33>
        }
      }
    }
    return %0 : memref<32x32xf32, #map33>
  }
  func @PE0_AIE64(%arg0: memref<32x32xf32, #map39>, %arg1: memref<32x32xf32, #map35>, %arg2: memref<32x32xf32, #map33>) -> memref<32x32xf32, #map33> {
    %0 = memref.alloc() : memref<32x32xf32, #map33>
    affine.for %arg3 = 0 to 32 {
      affine.for %arg4 = 0 to 32 {
        %1 = affine.load %arg2[%arg3, %arg4] : memref<32x32xf32, #map33>
        affine.store %1, %0[%arg3, %arg4] : memref<32x32xf32, #map33>
      }
    }
    affine.for %arg3 = 0 to 32 {
      affine.for %arg4 = 0 to 32 {
        affine.for %arg5 = 0 to 32 {
          %1 = affine.load %arg0[%arg3, %arg5] : memref<32x32xf32, #map39>
          %2 = affine.load %arg1[%arg5, %arg4] : memref<32x32xf32, #map35>
          %3 = arith.mulf %1, %2 : f32
          %4 = affine.load %0[%arg3, %arg4] : memref<32x32xf32, #map33>
          %5 = arith.addf %4, %3 : f32
          affine.store %5, %0[%arg3, %arg4] : memref<32x32xf32, #map33>
        }
      }
    }
    return %0 : memref<32x32xf32, #map33>
  }
  func @PE0_AIE63(%arg0: memref<32x32xf32, #map40>, %arg1: memref<32x32xf32, #map1>, %arg2: memref<32x32xf32, #map5>) -> memref<32x32xf32, #map5> {
    %0 = memref.alloc() : memref<32x32xf32, #map5>
    affine.for %arg3 = 0 to 32 {
      affine.for %arg4 = 0 to 32 {
        %1 = affine.load %arg2[%arg3, %arg4] : memref<32x32xf32, #map5>
        affine.store %1, %0[%arg3, %arg4] : memref<32x32xf32, #map5>
      }
    }
    affine.for %arg3 = 0 to 32 {
      affine.for %arg4 = 0 to 32 {
        affine.for %arg5 = 0 to 32 {
          %1 = affine.load %arg0[%arg3, %arg5] : memref<32x32xf32, #map40>
          %2 = affine.load %arg1[%arg5, %arg4] : memref<32x32xf32, #map1>
          %3 = arith.mulf %1, %2 : f32
          %4 = affine.load %0[%arg3, %arg4] : memref<32x32xf32, #map5>
          %5 = arith.addf %4, %3 : f32
          affine.store %5, %0[%arg3, %arg4] : memref<32x32xf32, #map5>
        }
      }
    }
    return %0 : memref<32x32xf32, #map5>
  }
  func @PE0_AIE62(%arg0: memref<32x32xf32, #map41>, %arg1: memref<32x32xf32, #map3>, %arg2: memref<32x32xf32, #map5>) -> memref<32x32xf32, #map5> {
    %0 = memref.alloc() : memref<32x32xf32, #map5>
    affine.for %arg3 = 0 to 32 {
      affine.for %arg4 = 0 to 32 {
        %1 = affine.load %arg2[%arg3, %arg4] : memref<32x32xf32, #map5>
        affine.store %1, %0[%arg3, %arg4] : memref<32x32xf32, #map5>
      }
    }
    affine.for %arg3 = 0 to 32 {
      affine.for %arg4 = 0 to 32 {
        affine.for %arg5 = 0 to 32 {
          %1 = affine.load %arg0[%arg3, %arg5] : memref<32x32xf32, #map41>
          %2 = affine.load %arg1[%arg5, %arg4] : memref<32x32xf32, #map3>
          %3 = arith.mulf %1, %2 : f32
          %4 = affine.load %0[%arg3, %arg4] : memref<32x32xf32, #map5>
          %5 = arith.addf %4, %3 : f32
          affine.store %5, %0[%arg3, %arg4] : memref<32x32xf32, #map5>
        }
      }
    }
    return %0 : memref<32x32xf32, #map5>
  }
  func @PE0_AIE61(%arg0: memref<32x32xf32, #map42>, %arg1: memref<32x32xf32, #map5>, %arg2: memref<32x32xf32, #map5>) -> memref<32x32xf32, #map5> {
    %0 = memref.alloc() : memref<32x32xf32, #map5>
    affine.for %arg3 = 0 to 32 {
      affine.for %arg4 = 0 to 32 {
        %1 = affine.load %arg2[%arg3, %arg4] : memref<32x32xf32, #map5>
        affine.store %1, %0[%arg3, %arg4] : memref<32x32xf32, #map5>
      }
    }
    affine.for %arg3 = 0 to 32 {
      affine.for %arg4 = 0 to 32 {
        affine.for %arg5 = 0 to 32 {
          %1 = affine.load %arg0[%arg3, %arg5] : memref<32x32xf32, #map42>
          %2 = affine.load %arg1[%arg5, %arg4] : memref<32x32xf32, #map5>
          %3 = arith.mulf %1, %2 : f32
          %4 = affine.load %0[%arg3, %arg4] : memref<32x32xf32, #map5>
          %5 = arith.addf %4, %3 : f32
          affine.store %5, %0[%arg3, %arg4] : memref<32x32xf32, #map5>
        }
      }
    }
    return %0 : memref<32x32xf32, #map5>
  }
  func @PE0_AIE60(%arg0: memref<32x32xf32, #map43>, %arg1: memref<32x32xf32, #map7>, %arg2: memref<32x32xf32, #map5>) -> memref<32x32xf32, #map5> {
    %0 = memref.alloc() : memref<32x32xf32, #map5>
    affine.for %arg3 = 0 to 32 {
      affine.for %arg4 = 0 to 32 {
        %1 = affine.load %arg2[%arg3, %arg4] : memref<32x32xf32, #map5>
        affine.store %1, %0[%arg3, %arg4] : memref<32x32xf32, #map5>
      }
    }
    affine.for %arg3 = 0 to 32 {
      affine.for %arg4 = 0 to 32 {
        affine.for %arg5 = 0 to 32 {
          %1 = affine.load %arg0[%arg3, %arg5] : memref<32x32xf32, #map43>
          %2 = affine.load %arg1[%arg5, %arg4] : memref<32x32xf32, #map7>
          %3 = arith.mulf %1, %2 : f32
          %4 = affine.load %0[%arg3, %arg4] : memref<32x32xf32, #map5>
          %5 = arith.addf %4, %3 : f32
          affine.store %5, %0[%arg3, %arg4] : memref<32x32xf32, #map5>
        }
      }
    }
    return %0 : memref<32x32xf32, #map5>
  }
  func @PE0_AIE59(%arg0: memref<32x32xf32, #map40>, %arg1: memref<32x32xf32, #map8>, %arg2: memref<32x32xf32, #map10>) -> memref<32x32xf32, #map10> {
    %0 = memref.alloc() : memref<32x32xf32, #map10>
    affine.for %arg3 = 0 to 32 {
      affine.for %arg4 = 0 to 32 {
        %1 = affine.load %arg2[%arg3, %arg4] : memref<32x32xf32, #map10>
        affine.store %1, %0[%arg3, %arg4] : memref<32x32xf32, #map10>
      }
    }
    affine.for %arg3 = 0 to 32 {
      affine.for %arg4 = 0 to 32 {
        affine.for %arg5 = 0 to 32 {
          %1 = affine.load %arg0[%arg3, %arg5] : memref<32x32xf32, #map40>
          %2 = affine.load %arg1[%arg5, %arg4] : memref<32x32xf32, #map8>
          %3 = arith.mulf %1, %2 : f32
          %4 = affine.load %0[%arg3, %arg4] : memref<32x32xf32, #map10>
          %5 = arith.addf %4, %3 : f32
          affine.store %5, %0[%arg3, %arg4] : memref<32x32xf32, #map10>
        }
      }
    }
    return %0 : memref<32x32xf32, #map10>
  }
  func @PE0_AIE58(%arg0: memref<32x32xf32, #map41>, %arg1: memref<32x32xf32, #map9>, %arg2: memref<32x32xf32, #map10>) -> memref<32x32xf32, #map10> {
    %0 = memref.alloc() : memref<32x32xf32, #map10>
    affine.for %arg3 = 0 to 32 {
      affine.for %arg4 = 0 to 32 {
        %1 = affine.load %arg2[%arg3, %arg4] : memref<32x32xf32, #map10>
        affine.store %1, %0[%arg3, %arg4] : memref<32x32xf32, #map10>
      }
    }
    affine.for %arg3 = 0 to 32 {
      affine.for %arg4 = 0 to 32 {
        affine.for %arg5 = 0 to 32 {
          %1 = affine.load %arg0[%arg3, %arg5] : memref<32x32xf32, #map41>
          %2 = affine.load %arg1[%arg5, %arg4] : memref<32x32xf32, #map9>
          %3 = arith.mulf %1, %2 : f32
          %4 = affine.load %0[%arg3, %arg4] : memref<32x32xf32, #map10>
          %5 = arith.addf %4, %3 : f32
          affine.store %5, %0[%arg3, %arg4] : memref<32x32xf32, #map10>
        }
      }
    }
    return %0 : memref<32x32xf32, #map10>
  }
  func @PE0_AIE57(%arg0: memref<32x32xf32, #map42>, %arg1: memref<32x32xf32, #map10>, %arg2: memref<32x32xf32, #map10>) -> memref<32x32xf32, #map10> {
    %0 = memref.alloc() : memref<32x32xf32, #map10>
    affine.for %arg3 = 0 to 32 {
      affine.for %arg4 = 0 to 32 {
        %1 = affine.load %arg2[%arg3, %arg4] : memref<32x32xf32, #map10>
        affine.store %1, %0[%arg3, %arg4] : memref<32x32xf32, #map10>
      }
    }
    affine.for %arg3 = 0 to 32 {
      affine.for %arg4 = 0 to 32 {
        affine.for %arg5 = 0 to 32 {
          %1 = affine.load %arg0[%arg3, %arg5] : memref<32x32xf32, #map42>
          %2 = affine.load %arg1[%arg5, %arg4] : memref<32x32xf32, #map10>
          %3 = arith.mulf %1, %2 : f32
          %4 = affine.load %0[%arg3, %arg4] : memref<32x32xf32, #map10>
          %5 = arith.addf %4, %3 : f32
          affine.store %5, %0[%arg3, %arg4] : memref<32x32xf32, #map10>
        }
      }
    }
    return %0 : memref<32x32xf32, #map10>
  }
  func @PE0_AIE56(%arg0: memref<32x32xf32, #map43>, %arg1: memref<32x32xf32, #map11>, %arg2: memref<32x32xf32, #map10>) -> memref<32x32xf32, #map10> {
    %0 = memref.alloc() : memref<32x32xf32, #map10>
    affine.for %arg3 = 0 to 32 {
      affine.for %arg4 = 0 to 32 {
        %1 = affine.load %arg2[%arg3, %arg4] : memref<32x32xf32, #map10>
        affine.store %1, %0[%arg3, %arg4] : memref<32x32xf32, #map10>
      }
    }
    affine.for %arg3 = 0 to 32 {
      affine.for %arg4 = 0 to 32 {
        affine.for %arg5 = 0 to 32 {
          %1 = affine.load %arg0[%arg3, %arg5] : memref<32x32xf32, #map43>
          %2 = affine.load %arg1[%arg5, %arg4] : memref<32x32xf32, #map11>
          %3 = arith.mulf %1, %2 : f32
          %4 = affine.load %0[%arg3, %arg4] : memref<32x32xf32, #map10>
          %5 = arith.addf %4, %3 : f32
          affine.store %5, %0[%arg3, %arg4] : memref<32x32xf32, #map10>
        }
      }
    }
    return %0 : memref<32x32xf32, #map10>
  }
  func @PE0_AIE55(%arg0: memref<32x32xf32, #map40>, %arg1: memref<32x32xf32, #map12>, %arg2: memref<32x32xf32, #map14>) -> memref<32x32xf32, #map14> {
    %0 = memref.alloc() : memref<32x32xf32, #map14>
    affine.for %arg3 = 0 to 32 {
      affine.for %arg4 = 0 to 32 {
        %1 = affine.load %arg2[%arg3, %arg4] : memref<32x32xf32, #map14>
        affine.store %1, %0[%arg3, %arg4] : memref<32x32xf32, #map14>
      }
    }
    affine.for %arg3 = 0 to 32 {
      affine.for %arg4 = 0 to 32 {
        affine.for %arg5 = 0 to 32 {
          %1 = affine.load %arg0[%arg3, %arg5] : memref<32x32xf32, #map40>
          %2 = affine.load %arg1[%arg5, %arg4] : memref<32x32xf32, #map12>
          %3 = arith.mulf %1, %2 : f32
          %4 = affine.load %0[%arg3, %arg4] : memref<32x32xf32, #map14>
          %5 = arith.addf %4, %3 : f32
          affine.store %5, %0[%arg3, %arg4] : memref<32x32xf32, #map14>
        }
      }
    }
    return %0 : memref<32x32xf32, #map14>
  }
  func @PE0_AIE54(%arg0: memref<32x32xf32, #map41>, %arg1: memref<32x32xf32, #map13>, %arg2: memref<32x32xf32, #map14>) -> memref<32x32xf32, #map14> {
    %0 = memref.alloc() : memref<32x32xf32, #map14>
    affine.for %arg3 = 0 to 32 {
      affine.for %arg4 = 0 to 32 {
        %1 = affine.load %arg2[%arg3, %arg4] : memref<32x32xf32, #map14>
        affine.store %1, %0[%arg3, %arg4] : memref<32x32xf32, #map14>
      }
    }
    affine.for %arg3 = 0 to 32 {
      affine.for %arg4 = 0 to 32 {
        affine.for %arg5 = 0 to 32 {
          %1 = affine.load %arg0[%arg3, %arg5] : memref<32x32xf32, #map41>
          %2 = affine.load %arg1[%arg5, %arg4] : memref<32x32xf32, #map13>
          %3 = arith.mulf %1, %2 : f32
          %4 = affine.load %0[%arg3, %arg4] : memref<32x32xf32, #map14>
          %5 = arith.addf %4, %3 : f32
          affine.store %5, %0[%arg3, %arg4] : memref<32x32xf32, #map14>
        }
      }
    }
    return %0 : memref<32x32xf32, #map14>
  }
  func @PE0_AIE53(%arg0: memref<32x32xf32, #map42>, %arg1: memref<32x32xf32, #map14>, %arg2: memref<32x32xf32, #map14>) -> memref<32x32xf32, #map14> {
    %0 = memref.alloc() : memref<32x32xf32, #map14>
    affine.for %arg3 = 0 to 32 {
      affine.for %arg4 = 0 to 32 {
        %1 = affine.load %arg2[%arg3, %arg4] : memref<32x32xf32, #map14>
        affine.store %1, %0[%arg3, %arg4] : memref<32x32xf32, #map14>
      }
    }
    affine.for %arg3 = 0 to 32 {
      affine.for %arg4 = 0 to 32 {
        affine.for %arg5 = 0 to 32 {
          %1 = affine.load %arg0[%arg3, %arg5] : memref<32x32xf32, #map42>
          %2 = affine.load %arg1[%arg5, %arg4] : memref<32x32xf32, #map14>
          %3 = arith.mulf %1, %2 : f32
          %4 = affine.load %0[%arg3, %arg4] : memref<32x32xf32, #map14>
          %5 = arith.addf %4, %3 : f32
          affine.store %5, %0[%arg3, %arg4] : memref<32x32xf32, #map14>
        }
      }
    }
    return %0 : memref<32x32xf32, #map14>
  }
  func @PE0_AIE52(%arg0: memref<32x32xf32, #map43>, %arg1: memref<32x32xf32, #map15>, %arg2: memref<32x32xf32, #map14>) -> memref<32x32xf32, #map14> {
    %0 = memref.alloc() : memref<32x32xf32, #map14>
    affine.for %arg3 = 0 to 32 {
      affine.for %arg4 = 0 to 32 {
        %1 = affine.load %arg2[%arg3, %arg4] : memref<32x32xf32, #map14>
        affine.store %1, %0[%arg3, %arg4] : memref<32x32xf32, #map14>
      }
    }
    affine.for %arg3 = 0 to 32 {
      affine.for %arg4 = 0 to 32 {
        affine.for %arg5 = 0 to 32 {
          %1 = affine.load %arg0[%arg3, %arg5] : memref<32x32xf32, #map43>
          %2 = affine.load %arg1[%arg5, %arg4] : memref<32x32xf32, #map15>
          %3 = arith.mulf %1, %2 : f32
          %4 = affine.load %0[%arg3, %arg4] : memref<32x32xf32, #map14>
          %5 = arith.addf %4, %3 : f32
          affine.store %5, %0[%arg3, %arg4] : memref<32x32xf32, #map14>
        }
      }
    }
    return %0 : memref<32x32xf32, #map14>
  }
  func @PE0_AIE51(%arg0: memref<32x32xf32, #map40>, %arg1: memref<32x32xf32, #map16>, %arg2: memref<32x32xf32, #map18>) -> memref<32x32xf32, #map18> {
    %0 = memref.alloc() : memref<32x32xf32, #map18>
    affine.for %arg3 = 0 to 32 {
      affine.for %arg4 = 0 to 32 {
        %1 = affine.load %arg2[%arg3, %arg4] : memref<32x32xf32, #map18>
        affine.store %1, %0[%arg3, %arg4] : memref<32x32xf32, #map18>
      }
    }
    affine.for %arg3 = 0 to 32 {
      affine.for %arg4 = 0 to 32 {
        affine.for %arg5 = 0 to 32 {
          %1 = affine.load %arg0[%arg3, %arg5] : memref<32x32xf32, #map40>
          %2 = affine.load %arg1[%arg5, %arg4] : memref<32x32xf32, #map16>
          %3 = arith.mulf %1, %2 : f32
          %4 = affine.load %0[%arg3, %arg4] : memref<32x32xf32, #map18>
          %5 = arith.addf %4, %3 : f32
          affine.store %5, %0[%arg3, %arg4] : memref<32x32xf32, #map18>
        }
      }
    }
    return %0 : memref<32x32xf32, #map18>
  }
  func @PE0_AIE50(%arg0: memref<32x32xf32, #map41>, %arg1: memref<32x32xf32, #map17>, %arg2: memref<32x32xf32, #map18>) -> memref<32x32xf32, #map18> {
    %0 = memref.alloc() : memref<32x32xf32, #map18>
    affine.for %arg3 = 0 to 32 {
      affine.for %arg4 = 0 to 32 {
        %1 = affine.load %arg2[%arg3, %arg4] : memref<32x32xf32, #map18>
        affine.store %1, %0[%arg3, %arg4] : memref<32x32xf32, #map18>
      }
    }
    affine.for %arg3 = 0 to 32 {
      affine.for %arg4 = 0 to 32 {
        affine.for %arg5 = 0 to 32 {
          %1 = affine.load %arg0[%arg3, %arg5] : memref<32x32xf32, #map41>
          %2 = affine.load %arg1[%arg5, %arg4] : memref<32x32xf32, #map17>
          %3 = arith.mulf %1, %2 : f32
          %4 = affine.load %0[%arg3, %arg4] : memref<32x32xf32, #map18>
          %5 = arith.addf %4, %3 : f32
          affine.store %5, %0[%arg3, %arg4] : memref<32x32xf32, #map18>
        }
      }
    }
    return %0 : memref<32x32xf32, #map18>
  }
  func @PE0_AIE49(%arg0: memref<32x32xf32, #map42>, %arg1: memref<32x32xf32, #map18>, %arg2: memref<32x32xf32, #map18>) -> memref<32x32xf32, #map18> {
    %0 = memref.alloc() : memref<32x32xf32, #map18>
    affine.for %arg3 = 0 to 32 {
      affine.for %arg4 = 0 to 32 {
        %1 = affine.load %arg2[%arg3, %arg4] : memref<32x32xf32, #map18>
        affine.store %1, %0[%arg3, %arg4] : memref<32x32xf32, #map18>
      }
    }
    affine.for %arg3 = 0 to 32 {
      affine.for %arg4 = 0 to 32 {
        affine.for %arg5 = 0 to 32 {
          %1 = affine.load %arg0[%arg3, %arg5] : memref<32x32xf32, #map42>
          %2 = affine.load %arg1[%arg5, %arg4] : memref<32x32xf32, #map18>
          %3 = arith.mulf %1, %2 : f32
          %4 = affine.load %0[%arg3, %arg4] : memref<32x32xf32, #map18>
          %5 = arith.addf %4, %3 : f32
          affine.store %5, %0[%arg3, %arg4] : memref<32x32xf32, #map18>
        }
      }
    }
    return %0 : memref<32x32xf32, #map18>
  }
  func @PE0_AIE48(%arg0: memref<32x32xf32, #map43>, %arg1: memref<32x32xf32, #map19>, %arg2: memref<32x32xf32, #map18>) -> memref<32x32xf32, #map18> {
    %0 = memref.alloc() : memref<32x32xf32, #map18>
    affine.for %arg3 = 0 to 32 {
      affine.for %arg4 = 0 to 32 {
        %1 = affine.load %arg2[%arg3, %arg4] : memref<32x32xf32, #map18>
        affine.store %1, %0[%arg3, %arg4] : memref<32x32xf32, #map18>
      }
    }
    affine.for %arg3 = 0 to 32 {
      affine.for %arg4 = 0 to 32 {
        affine.for %arg5 = 0 to 32 {
          %1 = affine.load %arg0[%arg3, %arg5] : memref<32x32xf32, #map43>
          %2 = affine.load %arg1[%arg5, %arg4] : memref<32x32xf32, #map19>
          %3 = arith.mulf %1, %2 : f32
          %4 = affine.load %0[%arg3, %arg4] : memref<32x32xf32, #map18>
          %5 = arith.addf %4, %3 : f32
          affine.store %5, %0[%arg3, %arg4] : memref<32x32xf32, #map18>
        }
      }
    }
    return %0 : memref<32x32xf32, #map18>
  }
  func @PE0_AIE47(%arg0: memref<32x32xf32, #map40>, %arg1: memref<32x32xf32, #map20>, %arg2: memref<32x32xf32, #map22>) -> memref<32x32xf32, #map22> {
    %0 = memref.alloc() : memref<32x32xf32, #map22>
    affine.for %arg3 = 0 to 32 {
      affine.for %arg4 = 0 to 32 {
        %1 = affine.load %arg2[%arg3, %arg4] : memref<32x32xf32, #map22>
        affine.store %1, %0[%arg3, %arg4] : memref<32x32xf32, #map22>
      }
    }
    affine.for %arg3 = 0 to 32 {
      affine.for %arg4 = 0 to 32 {
        affine.for %arg5 = 0 to 32 {
          %1 = affine.load %arg0[%arg3, %arg5] : memref<32x32xf32, #map40>
          %2 = affine.load %arg1[%arg5, %arg4] : memref<32x32xf32, #map20>
          %3 = arith.mulf %1, %2 : f32
          %4 = affine.load %0[%arg3, %arg4] : memref<32x32xf32, #map22>
          %5 = arith.addf %4, %3 : f32
          affine.store %5, %0[%arg3, %arg4] : memref<32x32xf32, #map22>
        }
      }
    }
    return %0 : memref<32x32xf32, #map22>
  }
  func @PE0_AIE46(%arg0: memref<32x32xf32, #map41>, %arg1: memref<32x32xf32, #map21>, %arg2: memref<32x32xf32, #map22>) -> memref<32x32xf32, #map22> {
    %0 = memref.alloc() : memref<32x32xf32, #map22>
    affine.for %arg3 = 0 to 32 {
      affine.for %arg4 = 0 to 32 {
        %1 = affine.load %arg2[%arg3, %arg4] : memref<32x32xf32, #map22>
        affine.store %1, %0[%arg3, %arg4] : memref<32x32xf32, #map22>
      }
    }
    affine.for %arg3 = 0 to 32 {
      affine.for %arg4 = 0 to 32 {
        affine.for %arg5 = 0 to 32 {
          %1 = affine.load %arg0[%arg3, %arg5] : memref<32x32xf32, #map41>
          %2 = affine.load %arg1[%arg5, %arg4] : memref<32x32xf32, #map21>
          %3 = arith.mulf %1, %2 : f32
          %4 = affine.load %0[%arg3, %arg4] : memref<32x32xf32, #map22>
          %5 = arith.addf %4, %3 : f32
          affine.store %5, %0[%arg3, %arg4] : memref<32x32xf32, #map22>
        }
      }
    }
    return %0 : memref<32x32xf32, #map22>
  }
  func @PE0_AIE45(%arg0: memref<32x32xf32, #map42>, %arg1: memref<32x32xf32, #map22>, %arg2: memref<32x32xf32, #map22>) -> memref<32x32xf32, #map22> {
    %0 = memref.alloc() : memref<32x32xf32, #map22>
    affine.for %arg3 = 0 to 32 {
      affine.for %arg4 = 0 to 32 {
        %1 = affine.load %arg2[%arg3, %arg4] : memref<32x32xf32, #map22>
        affine.store %1, %0[%arg3, %arg4] : memref<32x32xf32, #map22>
      }
    }
    affine.for %arg3 = 0 to 32 {
      affine.for %arg4 = 0 to 32 {
        affine.for %arg5 = 0 to 32 {
          %1 = affine.load %arg0[%arg3, %arg5] : memref<32x32xf32, #map42>
          %2 = affine.load %arg1[%arg5, %arg4] : memref<32x32xf32, #map22>
          %3 = arith.mulf %1, %2 : f32
          %4 = affine.load %0[%arg3, %arg4] : memref<32x32xf32, #map22>
          %5 = arith.addf %4, %3 : f32
          affine.store %5, %0[%arg3, %arg4] : memref<32x32xf32, #map22>
        }
      }
    }
    return %0 : memref<32x32xf32, #map22>
  }
  func @PE0_AIE44(%arg0: memref<32x32xf32, #map43>, %arg1: memref<32x32xf32, #map23>, %arg2: memref<32x32xf32, #map22>) -> memref<32x32xf32, #map22> {
    %0 = memref.alloc() : memref<32x32xf32, #map22>
    affine.for %arg3 = 0 to 32 {
      affine.for %arg4 = 0 to 32 {
        %1 = affine.load %arg2[%arg3, %arg4] : memref<32x32xf32, #map22>
        affine.store %1, %0[%arg3, %arg4] : memref<32x32xf32, #map22>
      }
    }
    affine.for %arg3 = 0 to 32 {
      affine.for %arg4 = 0 to 32 {
        affine.for %arg5 = 0 to 32 {
          %1 = affine.load %arg0[%arg3, %arg5] : memref<32x32xf32, #map43>
          %2 = affine.load %arg1[%arg5, %arg4] : memref<32x32xf32, #map23>
          %3 = arith.mulf %1, %2 : f32
          %4 = affine.load %0[%arg3, %arg4] : memref<32x32xf32, #map22>
          %5 = arith.addf %4, %3 : f32
          affine.store %5, %0[%arg3, %arg4] : memref<32x32xf32, #map22>
        }
      }
    }
    return %0 : memref<32x32xf32, #map22>
  }
  func @PE0_AIE43(%arg0: memref<32x32xf32, #map40>, %arg1: memref<32x32xf32, #map24>, %arg2: memref<32x32xf32, #map26>) -> memref<32x32xf32, #map26> {
    %0 = memref.alloc() : memref<32x32xf32, #map26>
    affine.for %arg3 = 0 to 32 {
      affine.for %arg4 = 0 to 32 {
        %1 = affine.load %arg2[%arg3, %arg4] : memref<32x32xf32, #map26>
        affine.store %1, %0[%arg3, %arg4] : memref<32x32xf32, #map26>
      }
    }
    affine.for %arg3 = 0 to 32 {
      affine.for %arg4 = 0 to 32 {
        affine.for %arg5 = 0 to 32 {
          %1 = affine.load %arg0[%arg3, %arg5] : memref<32x32xf32, #map40>
          %2 = affine.load %arg1[%arg5, %arg4] : memref<32x32xf32, #map24>
          %3 = arith.mulf %1, %2 : f32
          %4 = affine.load %0[%arg3, %arg4] : memref<32x32xf32, #map26>
          %5 = arith.addf %4, %3 : f32
          affine.store %5, %0[%arg3, %arg4] : memref<32x32xf32, #map26>
        }
      }
    }
    return %0 : memref<32x32xf32, #map26>
  }
  func @PE0_AIE42(%arg0: memref<32x32xf32, #map41>, %arg1: memref<32x32xf32, #map25>, %arg2: memref<32x32xf32, #map26>) -> memref<32x32xf32, #map26> {
    %0 = memref.alloc() : memref<32x32xf32, #map26>
    affine.for %arg3 = 0 to 32 {
      affine.for %arg4 = 0 to 32 {
        %1 = affine.load %arg2[%arg3, %arg4] : memref<32x32xf32, #map26>
        affine.store %1, %0[%arg3, %arg4] : memref<32x32xf32, #map26>
      }
    }
    affine.for %arg3 = 0 to 32 {
      affine.for %arg4 = 0 to 32 {
        affine.for %arg5 = 0 to 32 {
          %1 = affine.load %arg0[%arg3, %arg5] : memref<32x32xf32, #map41>
          %2 = affine.load %arg1[%arg5, %arg4] : memref<32x32xf32, #map25>
          %3 = arith.mulf %1, %2 : f32
          %4 = affine.load %0[%arg3, %arg4] : memref<32x32xf32, #map26>
          %5 = arith.addf %4, %3 : f32
          affine.store %5, %0[%arg3, %arg4] : memref<32x32xf32, #map26>
        }
      }
    }
    return %0 : memref<32x32xf32, #map26>
  }
  func @PE0_AIE41(%arg0: memref<32x32xf32, #map42>, %arg1: memref<32x32xf32, #map26>, %arg2: memref<32x32xf32, #map26>) -> memref<32x32xf32, #map26> {
    %0 = memref.alloc() : memref<32x32xf32, #map26>
    affine.for %arg3 = 0 to 32 {
      affine.for %arg4 = 0 to 32 {
        %1 = affine.load %arg2[%arg3, %arg4] : memref<32x32xf32, #map26>
        affine.store %1, %0[%arg3, %arg4] : memref<32x32xf32, #map26>
      }
    }
    affine.for %arg3 = 0 to 32 {
      affine.for %arg4 = 0 to 32 {
        affine.for %arg5 = 0 to 32 {
          %1 = affine.load %arg0[%arg3, %arg5] : memref<32x32xf32, #map42>
          %2 = affine.load %arg1[%arg5, %arg4] : memref<32x32xf32, #map26>
          %3 = arith.mulf %1, %2 : f32
          %4 = affine.load %0[%arg3, %arg4] : memref<32x32xf32, #map26>
          %5 = arith.addf %4, %3 : f32
          affine.store %5, %0[%arg3, %arg4] : memref<32x32xf32, #map26>
        }
      }
    }
    return %0 : memref<32x32xf32, #map26>
  }
  func @PE0_AIE40(%arg0: memref<32x32xf32, #map43>, %arg1: memref<32x32xf32, #map27>, %arg2: memref<32x32xf32, #map26>) -> memref<32x32xf32, #map26> {
    %0 = memref.alloc() : memref<32x32xf32, #map26>
    affine.for %arg3 = 0 to 32 {
      affine.for %arg4 = 0 to 32 {
        %1 = affine.load %arg2[%arg3, %arg4] : memref<32x32xf32, #map26>
        affine.store %1, %0[%arg3, %arg4] : memref<32x32xf32, #map26>
      }
    }
    affine.for %arg3 = 0 to 32 {
      affine.for %arg4 = 0 to 32 {
        affine.for %arg5 = 0 to 32 {
          %1 = affine.load %arg0[%arg3, %arg5] : memref<32x32xf32, #map43>
          %2 = affine.load %arg1[%arg5, %arg4] : memref<32x32xf32, #map27>
          %3 = arith.mulf %1, %2 : f32
          %4 = affine.load %0[%arg3, %arg4] : memref<32x32xf32, #map26>
          %5 = arith.addf %4, %3 : f32
          affine.store %5, %0[%arg3, %arg4] : memref<32x32xf32, #map26>
        }
      }
    }
    return %0 : memref<32x32xf32, #map26>
  }
  func @PE0_AIE39(%arg0: memref<32x32xf32, #map40>, %arg1: memref<32x32xf32, #map28>, %arg2: memref<32x32xf32, #map30>) -> memref<32x32xf32, #map30> {
    %0 = memref.alloc() : memref<32x32xf32, #map30>
    affine.for %arg3 = 0 to 32 {
      affine.for %arg4 = 0 to 32 {
        %1 = affine.load %arg2[%arg3, %arg4] : memref<32x32xf32, #map30>
        affine.store %1, %0[%arg3, %arg4] : memref<32x32xf32, #map30>
      }
    }
    affine.for %arg3 = 0 to 32 {
      affine.for %arg4 = 0 to 32 {
        affine.for %arg5 = 0 to 32 {
          %1 = affine.load %arg0[%arg3, %arg5] : memref<32x32xf32, #map40>
          %2 = affine.load %arg1[%arg5, %arg4] : memref<32x32xf32, #map28>
          %3 = arith.mulf %1, %2 : f32
          %4 = affine.load %0[%arg3, %arg4] : memref<32x32xf32, #map30>
          %5 = arith.addf %4, %3 : f32
          affine.store %5, %0[%arg3, %arg4] : memref<32x32xf32, #map30>
        }
      }
    }
    return %0 : memref<32x32xf32, #map30>
  }
  func @PE0_AIE38(%arg0: memref<32x32xf32, #map41>, %arg1: memref<32x32xf32, #map29>, %arg2: memref<32x32xf32, #map30>) -> memref<32x32xf32, #map30> {
    %0 = memref.alloc() : memref<32x32xf32, #map30>
    affine.for %arg3 = 0 to 32 {
      affine.for %arg4 = 0 to 32 {
        %1 = affine.load %arg2[%arg3, %arg4] : memref<32x32xf32, #map30>
        affine.store %1, %0[%arg3, %arg4] : memref<32x32xf32, #map30>
      }
    }
    affine.for %arg3 = 0 to 32 {
      affine.for %arg4 = 0 to 32 {
        affine.for %arg5 = 0 to 32 {
          %1 = affine.load %arg0[%arg3, %arg5] : memref<32x32xf32, #map41>
          %2 = affine.load %arg1[%arg5, %arg4] : memref<32x32xf32, #map29>
          %3 = arith.mulf %1, %2 : f32
          %4 = affine.load %0[%arg3, %arg4] : memref<32x32xf32, #map30>
          %5 = arith.addf %4, %3 : f32
          affine.store %5, %0[%arg3, %arg4] : memref<32x32xf32, #map30>
        }
      }
    }
    return %0 : memref<32x32xf32, #map30>
  }
  func @PE0_AIE37(%arg0: memref<32x32xf32, #map42>, %arg1: memref<32x32xf32, #map30>, %arg2: memref<32x32xf32, #map30>) -> memref<32x32xf32, #map30> {
    %0 = memref.alloc() : memref<32x32xf32, #map30>
    affine.for %arg3 = 0 to 32 {
      affine.for %arg4 = 0 to 32 {
        %1 = affine.load %arg2[%arg3, %arg4] : memref<32x32xf32, #map30>
        affine.store %1, %0[%arg3, %arg4] : memref<32x32xf32, #map30>
      }
    }
    affine.for %arg3 = 0 to 32 {
      affine.for %arg4 = 0 to 32 {
        affine.for %arg5 = 0 to 32 {
          %1 = affine.load %arg0[%arg3, %arg5] : memref<32x32xf32, #map42>
          %2 = affine.load %arg1[%arg5, %arg4] : memref<32x32xf32, #map30>
          %3 = arith.mulf %1, %2 : f32
          %4 = affine.load %0[%arg3, %arg4] : memref<32x32xf32, #map30>
          %5 = arith.addf %4, %3 : f32
          affine.store %5, %0[%arg3, %arg4] : memref<32x32xf32, #map30>
        }
      }
    }
    return %0 : memref<32x32xf32, #map30>
  }
  func @PE0_AIE36(%arg0: memref<32x32xf32, #map43>, %arg1: memref<32x32xf32, #map31>, %arg2: memref<32x32xf32, #map30>) -> memref<32x32xf32, #map30> {
    %0 = memref.alloc() : memref<32x32xf32, #map30>
    affine.for %arg3 = 0 to 32 {
      affine.for %arg4 = 0 to 32 {
        %1 = affine.load %arg2[%arg3, %arg4] : memref<32x32xf32, #map30>
        affine.store %1, %0[%arg3, %arg4] : memref<32x32xf32, #map30>
      }
    }
    affine.for %arg3 = 0 to 32 {
      affine.for %arg4 = 0 to 32 {
        affine.for %arg5 = 0 to 32 {
          %1 = affine.load %arg0[%arg3, %arg5] : memref<32x32xf32, #map43>
          %2 = affine.load %arg1[%arg5, %arg4] : memref<32x32xf32, #map31>
          %3 = arith.mulf %1, %2 : f32
          %4 = affine.load %0[%arg3, %arg4] : memref<32x32xf32, #map30>
          %5 = arith.addf %4, %3 : f32
          affine.store %5, %0[%arg3, %arg4] : memref<32x32xf32, #map30>
        }
      }
    }
    return %0 : memref<32x32xf32, #map30>
  }
  func @PE0_AIE35(%arg0: memref<32x32xf32, #map40>, %arg1: memref<32x32xf32, #map32>, %arg2: memref<32x32xf32, #map34>) -> memref<32x32xf32, #map34> {
    %0 = memref.alloc() : memref<32x32xf32, #map34>
    affine.for %arg3 = 0 to 32 {
      affine.for %arg4 = 0 to 32 {
        %1 = affine.load %arg2[%arg3, %arg4] : memref<32x32xf32, #map34>
        affine.store %1, %0[%arg3, %arg4] : memref<32x32xf32, #map34>
      }
    }
    affine.for %arg3 = 0 to 32 {
      affine.for %arg4 = 0 to 32 {
        affine.for %arg5 = 0 to 32 {
          %1 = affine.load %arg0[%arg3, %arg5] : memref<32x32xf32, #map40>
          %2 = affine.load %arg1[%arg5, %arg4] : memref<32x32xf32, #map32>
          %3 = arith.mulf %1, %2 : f32
          %4 = affine.load %0[%arg3, %arg4] : memref<32x32xf32, #map34>
          %5 = arith.addf %4, %3 : f32
          affine.store %5, %0[%arg3, %arg4] : memref<32x32xf32, #map34>
        }
      }
    }
    return %0 : memref<32x32xf32, #map34>
  }
  func @PE0_AIE34(%arg0: memref<32x32xf32, #map41>, %arg1: memref<32x32xf32, #map33>, %arg2: memref<32x32xf32, #map34>) -> memref<32x32xf32, #map34> {
    %0 = memref.alloc() : memref<32x32xf32, #map34>
    affine.for %arg3 = 0 to 32 {
      affine.for %arg4 = 0 to 32 {
        %1 = affine.load %arg2[%arg3, %arg4] : memref<32x32xf32, #map34>
        affine.store %1, %0[%arg3, %arg4] : memref<32x32xf32, #map34>
      }
    }
    affine.for %arg3 = 0 to 32 {
      affine.for %arg4 = 0 to 32 {
        affine.for %arg5 = 0 to 32 {
          %1 = affine.load %arg0[%arg3, %arg5] : memref<32x32xf32, #map41>
          %2 = affine.load %arg1[%arg5, %arg4] : memref<32x32xf32, #map33>
          %3 = arith.mulf %1, %2 : f32
          %4 = affine.load %0[%arg3, %arg4] : memref<32x32xf32, #map34>
          %5 = arith.addf %4, %3 : f32
          affine.store %5, %0[%arg3, %arg4] : memref<32x32xf32, #map34>
        }
      }
    }
    return %0 : memref<32x32xf32, #map34>
  }
  func @PE0_AIE33(%arg0: memref<32x32xf32, #map42>, %arg1: memref<32x32xf32, #map34>, %arg2: memref<32x32xf32, #map34>) -> memref<32x32xf32, #map34> {
    %0 = memref.alloc() : memref<32x32xf32, #map34>
    affine.for %arg3 = 0 to 32 {
      affine.for %arg4 = 0 to 32 {
        %1 = affine.load %arg2[%arg3, %arg4] : memref<32x32xf32, #map34>
        affine.store %1, %0[%arg3, %arg4] : memref<32x32xf32, #map34>
      }
    }
    affine.for %arg3 = 0 to 32 {
      affine.for %arg4 = 0 to 32 {
        affine.for %arg5 = 0 to 32 {
          %1 = affine.load %arg0[%arg3, %arg5] : memref<32x32xf32, #map42>
          %2 = affine.load %arg1[%arg5, %arg4] : memref<32x32xf32, #map34>
          %3 = arith.mulf %1, %2 : f32
          %4 = affine.load %0[%arg3, %arg4] : memref<32x32xf32, #map34>
          %5 = arith.addf %4, %3 : f32
          affine.store %5, %0[%arg3, %arg4] : memref<32x32xf32, #map34>
        }
      }
    }
    return %0 : memref<32x32xf32, #map34>
  }
  func @PE0_AIE32(%arg0: memref<32x32xf32, #map43>, %arg1: memref<32x32xf32, #map35>, %arg2: memref<32x32xf32, #map34>) -> memref<32x32xf32, #map34> {
    %0 = memref.alloc() : memref<32x32xf32, #map34>
    affine.for %arg3 = 0 to 32 {
      affine.for %arg4 = 0 to 32 {
        %1 = affine.load %arg2[%arg3, %arg4] : memref<32x32xf32, #map34>
        affine.store %1, %0[%arg3, %arg4] : memref<32x32xf32, #map34>
      }
    }
    affine.for %arg3 = 0 to 32 {
      affine.for %arg4 = 0 to 32 {
        affine.for %arg5 = 0 to 32 {
          %1 = affine.load %arg0[%arg3, %arg5] : memref<32x32xf32, #map43>
          %2 = affine.load %arg1[%arg5, %arg4] : memref<32x32xf32, #map35>
          %3 = arith.mulf %1, %2 : f32
          %4 = affine.load %0[%arg3, %arg4] : memref<32x32xf32, #map34>
          %5 = arith.addf %4, %3 : f32
          affine.store %5, %0[%arg3, %arg4] : memref<32x32xf32, #map34>
        }
      }
    }
    return %0 : memref<32x32xf32, #map34>
  }
  func @PE0_AIE31(%arg0: memref<32x32xf32, #map44>, %arg1: memref<32x32xf32, #map1>, %arg2: memref<32x32xf32, #map7>) -> memref<32x32xf32, #map7> {
    %0 = memref.alloc() : memref<32x32xf32, #map7>
    affine.for %arg3 = 0 to 32 {
      affine.for %arg4 = 0 to 32 {
        %1 = affine.load %arg2[%arg3, %arg4] : memref<32x32xf32, #map7>
        affine.store %1, %0[%arg3, %arg4] : memref<32x32xf32, #map7>
      }
    }
    affine.for %arg3 = 0 to 32 {
      affine.for %arg4 = 0 to 32 {
        affine.for %arg5 = 0 to 32 {
          %1 = affine.load %arg0[%arg3, %arg5] : memref<32x32xf32, #map44>
          %2 = affine.load %arg1[%arg5, %arg4] : memref<32x32xf32, #map1>
          %3 = arith.mulf %1, %2 : f32
          %4 = affine.load %0[%arg3, %arg4] : memref<32x32xf32, #map7>
          %5 = arith.addf %4, %3 : f32
          affine.store %5, %0[%arg3, %arg4] : memref<32x32xf32, #map7>
        }
      }
    }
    return %0 : memref<32x32xf32, #map7>
  }
  func @PE0_AIE30(%arg0: memref<32x32xf32, #map45>, %arg1: memref<32x32xf32, #map3>, %arg2: memref<32x32xf32, #map7>) -> memref<32x32xf32, #map7> {
    %0 = memref.alloc() : memref<32x32xf32, #map7>
    affine.for %arg3 = 0 to 32 {
      affine.for %arg4 = 0 to 32 {
        %1 = affine.load %arg2[%arg3, %arg4] : memref<32x32xf32, #map7>
        affine.store %1, %0[%arg3, %arg4] : memref<32x32xf32, #map7>
      }
    }
    affine.for %arg3 = 0 to 32 {
      affine.for %arg4 = 0 to 32 {
        affine.for %arg5 = 0 to 32 {
          %1 = affine.load %arg0[%arg3, %arg5] : memref<32x32xf32, #map45>
          %2 = affine.load %arg1[%arg5, %arg4] : memref<32x32xf32, #map3>
          %3 = arith.mulf %1, %2 : f32
          %4 = affine.load %0[%arg3, %arg4] : memref<32x32xf32, #map7>
          %5 = arith.addf %4, %3 : f32
          affine.store %5, %0[%arg3, %arg4] : memref<32x32xf32, #map7>
        }
      }
    }
    return %0 : memref<32x32xf32, #map7>
  }
  func @PE0_AIE29(%arg0: memref<32x32xf32, #map46>, %arg1: memref<32x32xf32, #map5>, %arg2: memref<32x32xf32, #map7>) -> memref<32x32xf32, #map7> {
    %0 = memref.alloc() : memref<32x32xf32, #map7>
    affine.for %arg3 = 0 to 32 {
      affine.for %arg4 = 0 to 32 {
        %1 = affine.load %arg2[%arg3, %arg4] : memref<32x32xf32, #map7>
        affine.store %1, %0[%arg3, %arg4] : memref<32x32xf32, #map7>
      }
    }
    affine.for %arg3 = 0 to 32 {
      affine.for %arg4 = 0 to 32 {
        affine.for %arg5 = 0 to 32 {
          %1 = affine.load %arg0[%arg3, %arg5] : memref<32x32xf32, #map46>
          %2 = affine.load %arg1[%arg5, %arg4] : memref<32x32xf32, #map5>
          %3 = arith.mulf %1, %2 : f32
          %4 = affine.load %0[%arg3, %arg4] : memref<32x32xf32, #map7>
          %5 = arith.addf %4, %3 : f32
          affine.store %5, %0[%arg3, %arg4] : memref<32x32xf32, #map7>
        }
      }
    }
    return %0 : memref<32x32xf32, #map7>
  }
  func @PE0_AIE28(%arg0: memref<32x32xf32, #map47>, %arg1: memref<32x32xf32, #map7>, %arg2: memref<32x32xf32, #map7>) -> memref<32x32xf32, #map7> {
    %0 = memref.alloc() : memref<32x32xf32, #map7>
    affine.for %arg3 = 0 to 32 {
      affine.for %arg4 = 0 to 32 {
        %1 = affine.load %arg2[%arg3, %arg4] : memref<32x32xf32, #map7>
        affine.store %1, %0[%arg3, %arg4] : memref<32x32xf32, #map7>
      }
    }
    affine.for %arg3 = 0 to 32 {
      affine.for %arg4 = 0 to 32 {
        affine.for %arg5 = 0 to 32 {
          %1 = affine.load %arg0[%arg3, %arg5] : memref<32x32xf32, #map47>
          %2 = affine.load %arg1[%arg5, %arg4] : memref<32x32xf32, #map7>
          %3 = arith.mulf %1, %2 : f32
          %4 = affine.load %0[%arg3, %arg4] : memref<32x32xf32, #map7>
          %5 = arith.addf %4, %3 : f32
          affine.store %5, %0[%arg3, %arg4] : memref<32x32xf32, #map7>
        }
      }
    }
    return %0 : memref<32x32xf32, #map7>
  }
  func @PE0_AIE27(%arg0: memref<32x32xf32, #map44>, %arg1: memref<32x32xf32, #map8>, %arg2: memref<32x32xf32, #map11>) -> memref<32x32xf32, #map11> {
    %0 = memref.alloc() : memref<32x32xf32, #map11>
    affine.for %arg3 = 0 to 32 {
      affine.for %arg4 = 0 to 32 {
        %1 = affine.load %arg2[%arg3, %arg4] : memref<32x32xf32, #map11>
        affine.store %1, %0[%arg3, %arg4] : memref<32x32xf32, #map11>
      }
    }
    affine.for %arg3 = 0 to 32 {
      affine.for %arg4 = 0 to 32 {
        affine.for %arg5 = 0 to 32 {
          %1 = affine.load %arg0[%arg3, %arg5] : memref<32x32xf32, #map44>
          %2 = affine.load %arg1[%arg5, %arg4] : memref<32x32xf32, #map8>
          %3 = arith.mulf %1, %2 : f32
          %4 = affine.load %0[%arg3, %arg4] : memref<32x32xf32, #map11>
          %5 = arith.addf %4, %3 : f32
          affine.store %5, %0[%arg3, %arg4] : memref<32x32xf32, #map11>
        }
      }
    }
    return %0 : memref<32x32xf32, #map11>
  }
  func @PE0_AIE26(%arg0: memref<32x32xf32, #map45>, %arg1: memref<32x32xf32, #map9>, %arg2: memref<32x32xf32, #map11>) -> memref<32x32xf32, #map11> {
    %0 = memref.alloc() : memref<32x32xf32, #map11>
    affine.for %arg3 = 0 to 32 {
      affine.for %arg4 = 0 to 32 {
        %1 = affine.load %arg2[%arg3, %arg4] : memref<32x32xf32, #map11>
        affine.store %1, %0[%arg3, %arg4] : memref<32x32xf32, #map11>
      }
    }
    affine.for %arg3 = 0 to 32 {
      affine.for %arg4 = 0 to 32 {
        affine.for %arg5 = 0 to 32 {
          %1 = affine.load %arg0[%arg3, %arg5] : memref<32x32xf32, #map45>
          %2 = affine.load %arg1[%arg5, %arg4] : memref<32x32xf32, #map9>
          %3 = arith.mulf %1, %2 : f32
          %4 = affine.load %0[%arg3, %arg4] : memref<32x32xf32, #map11>
          %5 = arith.addf %4, %3 : f32
          affine.store %5, %0[%arg3, %arg4] : memref<32x32xf32, #map11>
        }
      }
    }
    return %0 : memref<32x32xf32, #map11>
  }
  func @PE0_AIE25(%arg0: memref<32x32xf32, #map46>, %arg1: memref<32x32xf32, #map10>, %arg2: memref<32x32xf32, #map11>) -> memref<32x32xf32, #map11> {
    %0 = memref.alloc() : memref<32x32xf32, #map11>
    affine.for %arg3 = 0 to 32 {
      affine.for %arg4 = 0 to 32 {
        %1 = affine.load %arg2[%arg3, %arg4] : memref<32x32xf32, #map11>
        affine.store %1, %0[%arg3, %arg4] : memref<32x32xf32, #map11>
      }
    }
    affine.for %arg3 = 0 to 32 {
      affine.for %arg4 = 0 to 32 {
        affine.for %arg5 = 0 to 32 {
          %1 = affine.load %arg0[%arg3, %arg5] : memref<32x32xf32, #map46>
          %2 = affine.load %arg1[%arg5, %arg4] : memref<32x32xf32, #map10>
          %3 = arith.mulf %1, %2 : f32
          %4 = affine.load %0[%arg3, %arg4] : memref<32x32xf32, #map11>
          %5 = arith.addf %4, %3 : f32
          affine.store %5, %0[%arg3, %arg4] : memref<32x32xf32, #map11>
        }
      }
    }
    return %0 : memref<32x32xf32, #map11>
  }
  func @PE0_AIE24(%arg0: memref<32x32xf32, #map47>, %arg1: memref<32x32xf32, #map11>, %arg2: memref<32x32xf32, #map11>) -> memref<32x32xf32, #map11> {
    %0 = memref.alloc() : memref<32x32xf32, #map11>
    affine.for %arg3 = 0 to 32 {
      affine.for %arg4 = 0 to 32 {
        %1 = affine.load %arg2[%arg3, %arg4] : memref<32x32xf32, #map11>
        affine.store %1, %0[%arg3, %arg4] : memref<32x32xf32, #map11>
      }
    }
    affine.for %arg3 = 0 to 32 {
      affine.for %arg4 = 0 to 32 {
        affine.for %arg5 = 0 to 32 {
          %1 = affine.load %arg0[%arg3, %arg5] : memref<32x32xf32, #map47>
          %2 = affine.load %arg1[%arg5, %arg4] : memref<32x32xf32, #map11>
          %3 = arith.mulf %1, %2 : f32
          %4 = affine.load %0[%arg3, %arg4] : memref<32x32xf32, #map11>
          %5 = arith.addf %4, %3 : f32
          affine.store %5, %0[%arg3, %arg4] : memref<32x32xf32, #map11>
        }
      }
    }
    return %0 : memref<32x32xf32, #map11>
  }
  func @PE0_AIE23(%arg0: memref<32x32xf32, #map44>, %arg1: memref<32x32xf32, #map12>, %arg2: memref<32x32xf32, #map15>) -> memref<32x32xf32, #map15> {
    %0 = memref.alloc() : memref<32x32xf32, #map15>
    affine.for %arg3 = 0 to 32 {
      affine.for %arg4 = 0 to 32 {
        %1 = affine.load %arg2[%arg3, %arg4] : memref<32x32xf32, #map15>
        affine.store %1, %0[%arg3, %arg4] : memref<32x32xf32, #map15>
      }
    }
    affine.for %arg3 = 0 to 32 {
      affine.for %arg4 = 0 to 32 {
        affine.for %arg5 = 0 to 32 {
          %1 = affine.load %arg0[%arg3, %arg5] : memref<32x32xf32, #map44>
          %2 = affine.load %arg1[%arg5, %arg4] : memref<32x32xf32, #map12>
          %3 = arith.mulf %1, %2 : f32
          %4 = affine.load %0[%arg3, %arg4] : memref<32x32xf32, #map15>
          %5 = arith.addf %4, %3 : f32
          affine.store %5, %0[%arg3, %arg4] : memref<32x32xf32, #map15>
        }
      }
    }
    return %0 : memref<32x32xf32, #map15>
  }
  func @PE0_AIE22(%arg0: memref<32x32xf32, #map45>, %arg1: memref<32x32xf32, #map13>, %arg2: memref<32x32xf32, #map15>) -> memref<32x32xf32, #map15> {
    %0 = memref.alloc() : memref<32x32xf32, #map15>
    affine.for %arg3 = 0 to 32 {
      affine.for %arg4 = 0 to 32 {
        %1 = affine.load %arg2[%arg3, %arg4] : memref<32x32xf32, #map15>
        affine.store %1, %0[%arg3, %arg4] : memref<32x32xf32, #map15>
      }
    }
    affine.for %arg3 = 0 to 32 {
      affine.for %arg4 = 0 to 32 {
        affine.for %arg5 = 0 to 32 {
          %1 = affine.load %arg0[%arg3, %arg5] : memref<32x32xf32, #map45>
          %2 = affine.load %arg1[%arg5, %arg4] : memref<32x32xf32, #map13>
          %3 = arith.mulf %1, %2 : f32
          %4 = affine.load %0[%arg3, %arg4] : memref<32x32xf32, #map15>
          %5 = arith.addf %4, %3 : f32
          affine.store %5, %0[%arg3, %arg4] : memref<32x32xf32, #map15>
        }
      }
    }
    return %0 : memref<32x32xf32, #map15>
  }
  func @PE0_AIE21(%arg0: memref<32x32xf32, #map46>, %arg1: memref<32x32xf32, #map14>, %arg2: memref<32x32xf32, #map15>) -> memref<32x32xf32, #map15> {
    %0 = memref.alloc() : memref<32x32xf32, #map15>
    affine.for %arg3 = 0 to 32 {
      affine.for %arg4 = 0 to 32 {
        %1 = affine.load %arg2[%arg3, %arg4] : memref<32x32xf32, #map15>
        affine.store %1, %0[%arg3, %arg4] : memref<32x32xf32, #map15>
      }
    }
    affine.for %arg3 = 0 to 32 {
      affine.for %arg4 = 0 to 32 {
        affine.for %arg5 = 0 to 32 {
          %1 = affine.load %arg0[%arg3, %arg5] : memref<32x32xf32, #map46>
          %2 = affine.load %arg1[%arg5, %arg4] : memref<32x32xf32, #map14>
          %3 = arith.mulf %1, %2 : f32
          %4 = affine.load %0[%arg3, %arg4] : memref<32x32xf32, #map15>
          %5 = arith.addf %4, %3 : f32
          affine.store %5, %0[%arg3, %arg4] : memref<32x32xf32, #map15>
        }
      }
    }
    return %0 : memref<32x32xf32, #map15>
  }
  func @PE0_AIE20(%arg0: memref<32x32xf32, #map47>, %arg1: memref<32x32xf32, #map15>, %arg2: memref<32x32xf32, #map15>) -> memref<32x32xf32, #map15> {
    %0 = memref.alloc() : memref<32x32xf32, #map15>
    affine.for %arg3 = 0 to 32 {
      affine.for %arg4 = 0 to 32 {
        %1 = affine.load %arg2[%arg3, %arg4] : memref<32x32xf32, #map15>
        affine.store %1, %0[%arg3, %arg4] : memref<32x32xf32, #map15>
      }
    }
    affine.for %arg3 = 0 to 32 {
      affine.for %arg4 = 0 to 32 {
        affine.for %arg5 = 0 to 32 {
          %1 = affine.load %arg0[%arg3, %arg5] : memref<32x32xf32, #map47>
          %2 = affine.load %arg1[%arg5, %arg4] : memref<32x32xf32, #map15>
          %3 = arith.mulf %1, %2 : f32
          %4 = affine.load %0[%arg3, %arg4] : memref<32x32xf32, #map15>
          %5 = arith.addf %4, %3 : f32
          affine.store %5, %0[%arg3, %arg4] : memref<32x32xf32, #map15>
        }
      }
    }
    return %0 : memref<32x32xf32, #map15>
  }
  func @PE0_AIE19(%arg0: memref<32x32xf32, #map44>, %arg1: memref<32x32xf32, #map16>, %arg2: memref<32x32xf32, #map19>) -> memref<32x32xf32, #map19> {
    %0 = memref.alloc() : memref<32x32xf32, #map19>
    affine.for %arg3 = 0 to 32 {
      affine.for %arg4 = 0 to 32 {
        %1 = affine.load %arg2[%arg3, %arg4] : memref<32x32xf32, #map19>
        affine.store %1, %0[%arg3, %arg4] : memref<32x32xf32, #map19>
      }
    }
    affine.for %arg3 = 0 to 32 {
      affine.for %arg4 = 0 to 32 {
        affine.for %arg5 = 0 to 32 {
          %1 = affine.load %arg0[%arg3, %arg5] : memref<32x32xf32, #map44>
          %2 = affine.load %arg1[%arg5, %arg4] : memref<32x32xf32, #map16>
          %3 = arith.mulf %1, %2 : f32
          %4 = affine.load %0[%arg3, %arg4] : memref<32x32xf32, #map19>
          %5 = arith.addf %4, %3 : f32
          affine.store %5, %0[%arg3, %arg4] : memref<32x32xf32, #map19>
        }
      }
    }
    return %0 : memref<32x32xf32, #map19>
  }
  func @PE0_AIE18(%arg0: memref<32x32xf32, #map45>, %arg1: memref<32x32xf32, #map17>, %arg2: memref<32x32xf32, #map19>) -> memref<32x32xf32, #map19> {
    %0 = memref.alloc() : memref<32x32xf32, #map19>
    affine.for %arg3 = 0 to 32 {
      affine.for %arg4 = 0 to 32 {
        %1 = affine.load %arg2[%arg3, %arg4] : memref<32x32xf32, #map19>
        affine.store %1, %0[%arg3, %arg4] : memref<32x32xf32, #map19>
      }
    }
    affine.for %arg3 = 0 to 32 {
      affine.for %arg4 = 0 to 32 {
        affine.for %arg5 = 0 to 32 {
          %1 = affine.load %arg0[%arg3, %arg5] : memref<32x32xf32, #map45>
          %2 = affine.load %arg1[%arg5, %arg4] : memref<32x32xf32, #map17>
          %3 = arith.mulf %1, %2 : f32
          %4 = affine.load %0[%arg3, %arg4] : memref<32x32xf32, #map19>
          %5 = arith.addf %4, %3 : f32
          affine.store %5, %0[%arg3, %arg4] : memref<32x32xf32, #map19>
        }
      }
    }
    return %0 : memref<32x32xf32, #map19>
  }
  func @PE0_AIE17(%arg0: memref<32x32xf32, #map46>, %arg1: memref<32x32xf32, #map18>, %arg2: memref<32x32xf32, #map19>) -> memref<32x32xf32, #map19> {
    %0 = memref.alloc() : memref<32x32xf32, #map19>
    affine.for %arg3 = 0 to 32 {
      affine.for %arg4 = 0 to 32 {
        %1 = affine.load %arg2[%arg3, %arg4] : memref<32x32xf32, #map19>
        affine.store %1, %0[%arg3, %arg4] : memref<32x32xf32, #map19>
      }
    }
    affine.for %arg3 = 0 to 32 {
      affine.for %arg4 = 0 to 32 {
        affine.for %arg5 = 0 to 32 {
          %1 = affine.load %arg0[%arg3, %arg5] : memref<32x32xf32, #map46>
          %2 = affine.load %arg1[%arg5, %arg4] : memref<32x32xf32, #map18>
          %3 = arith.mulf %1, %2 : f32
          %4 = affine.load %0[%arg3, %arg4] : memref<32x32xf32, #map19>
          %5 = arith.addf %4, %3 : f32
          affine.store %5, %0[%arg3, %arg4] : memref<32x32xf32, #map19>
        }
      }
    }
    return %0 : memref<32x32xf32, #map19>
  }
  func @PE0_AIE16(%arg0: memref<32x32xf32, #map47>, %arg1: memref<32x32xf32, #map19>, %arg2: memref<32x32xf32, #map19>) -> memref<32x32xf32, #map19> {
    %0 = memref.alloc() : memref<32x32xf32, #map19>
    affine.for %arg3 = 0 to 32 {
      affine.for %arg4 = 0 to 32 {
        %1 = affine.load %arg2[%arg3, %arg4] : memref<32x32xf32, #map19>
        affine.store %1, %0[%arg3, %arg4] : memref<32x32xf32, #map19>
      }
    }
    affine.for %arg3 = 0 to 32 {
      affine.for %arg4 = 0 to 32 {
        affine.for %arg5 = 0 to 32 {
          %1 = affine.load %arg0[%arg3, %arg5] : memref<32x32xf32, #map47>
          %2 = affine.load %arg1[%arg5, %arg4] : memref<32x32xf32, #map19>
          %3 = arith.mulf %1, %2 : f32
          %4 = affine.load %0[%arg3, %arg4] : memref<32x32xf32, #map19>
          %5 = arith.addf %4, %3 : f32
          affine.store %5, %0[%arg3, %arg4] : memref<32x32xf32, #map19>
        }
      }
    }
    return %0 : memref<32x32xf32, #map19>
  }
  func @PE0_AIE15(%arg0: memref<32x32xf32, #map44>, %arg1: memref<32x32xf32, #map20>, %arg2: memref<32x32xf32, #map23>) -> memref<32x32xf32, #map23> {
    %0 = memref.alloc() : memref<32x32xf32, #map23>
    affine.for %arg3 = 0 to 32 {
      affine.for %arg4 = 0 to 32 {
        %1 = affine.load %arg2[%arg3, %arg4] : memref<32x32xf32, #map23>
        affine.store %1, %0[%arg3, %arg4] : memref<32x32xf32, #map23>
      }
    }
    affine.for %arg3 = 0 to 32 {
      affine.for %arg4 = 0 to 32 {
        affine.for %arg5 = 0 to 32 {
          %1 = affine.load %arg0[%arg3, %arg5] : memref<32x32xf32, #map44>
          %2 = affine.load %arg1[%arg5, %arg4] : memref<32x32xf32, #map20>
          %3 = arith.mulf %1, %2 : f32
          %4 = affine.load %0[%arg3, %arg4] : memref<32x32xf32, #map23>
          %5 = arith.addf %4, %3 : f32
          affine.store %5, %0[%arg3, %arg4] : memref<32x32xf32, #map23>
        }
      }
    }
    return %0 : memref<32x32xf32, #map23>
  }
  func @PE0_AIE14(%arg0: memref<32x32xf32, #map45>, %arg1: memref<32x32xf32, #map21>, %arg2: memref<32x32xf32, #map23>) -> memref<32x32xf32, #map23> {
    %0 = memref.alloc() : memref<32x32xf32, #map23>
    affine.for %arg3 = 0 to 32 {
      affine.for %arg4 = 0 to 32 {
        %1 = affine.load %arg2[%arg3, %arg4] : memref<32x32xf32, #map23>
        affine.store %1, %0[%arg3, %arg4] : memref<32x32xf32, #map23>
      }
    }
    affine.for %arg3 = 0 to 32 {
      affine.for %arg4 = 0 to 32 {
        affine.for %arg5 = 0 to 32 {
          %1 = affine.load %arg0[%arg3, %arg5] : memref<32x32xf32, #map45>
          %2 = affine.load %arg1[%arg5, %arg4] : memref<32x32xf32, #map21>
          %3 = arith.mulf %1, %2 : f32
          %4 = affine.load %0[%arg3, %arg4] : memref<32x32xf32, #map23>
          %5 = arith.addf %4, %3 : f32
          affine.store %5, %0[%arg3, %arg4] : memref<32x32xf32, #map23>
        }
      }
    }
    return %0 : memref<32x32xf32, #map23>
  }
  func @PE0_AIE13(%arg0: memref<32x32xf32, #map46>, %arg1: memref<32x32xf32, #map22>, %arg2: memref<32x32xf32, #map23>) -> memref<32x32xf32, #map23> {
    %0 = memref.alloc() : memref<32x32xf32, #map23>
    affine.for %arg3 = 0 to 32 {
      affine.for %arg4 = 0 to 32 {
        %1 = affine.load %arg2[%arg3, %arg4] : memref<32x32xf32, #map23>
        affine.store %1, %0[%arg3, %arg4] : memref<32x32xf32, #map23>
      }
    }
    affine.for %arg3 = 0 to 32 {
      affine.for %arg4 = 0 to 32 {
        affine.for %arg5 = 0 to 32 {
          %1 = affine.load %arg0[%arg3, %arg5] : memref<32x32xf32, #map46>
          %2 = affine.load %arg1[%arg5, %arg4] : memref<32x32xf32, #map22>
          %3 = arith.mulf %1, %2 : f32
          %4 = affine.load %0[%arg3, %arg4] : memref<32x32xf32, #map23>
          %5 = arith.addf %4, %3 : f32
          affine.store %5, %0[%arg3, %arg4] : memref<32x32xf32, #map23>
        }
      }
    }
    return %0 : memref<32x32xf32, #map23>
  }
  func @PE0_AIE12(%arg0: memref<32x32xf32, #map47>, %arg1: memref<32x32xf32, #map23>, %arg2: memref<32x32xf32, #map23>) -> memref<32x32xf32, #map23> {
    %0 = memref.alloc() : memref<32x32xf32, #map23>
    affine.for %arg3 = 0 to 32 {
      affine.for %arg4 = 0 to 32 {
        %1 = affine.load %arg2[%arg3, %arg4] : memref<32x32xf32, #map23>
        affine.store %1, %0[%arg3, %arg4] : memref<32x32xf32, #map23>
      }
    }
    affine.for %arg3 = 0 to 32 {
      affine.for %arg4 = 0 to 32 {
        affine.for %arg5 = 0 to 32 {
          %1 = affine.load %arg0[%arg3, %arg5] : memref<32x32xf32, #map47>
          %2 = affine.load %arg1[%arg5, %arg4] : memref<32x32xf32, #map23>
          %3 = arith.mulf %1, %2 : f32
          %4 = affine.load %0[%arg3, %arg4] : memref<32x32xf32, #map23>
          %5 = arith.addf %4, %3 : f32
          affine.store %5, %0[%arg3, %arg4] : memref<32x32xf32, #map23>
        }
      }
    }
    return %0 : memref<32x32xf32, #map23>
  }
  func @PE0_AIE11(%arg0: memref<32x32xf32, #map44>, %arg1: memref<32x32xf32, #map24>, %arg2: memref<32x32xf32, #map27>) -> memref<32x32xf32, #map27> {
    %0 = memref.alloc() : memref<32x32xf32, #map27>
    affine.for %arg3 = 0 to 32 {
      affine.for %arg4 = 0 to 32 {
        %1 = affine.load %arg2[%arg3, %arg4] : memref<32x32xf32, #map27>
        affine.store %1, %0[%arg3, %arg4] : memref<32x32xf32, #map27>
      }
    }
    affine.for %arg3 = 0 to 32 {
      affine.for %arg4 = 0 to 32 {
        affine.for %arg5 = 0 to 32 {
          %1 = affine.load %arg0[%arg3, %arg5] : memref<32x32xf32, #map44>
          %2 = affine.load %arg1[%arg5, %arg4] : memref<32x32xf32, #map24>
          %3 = arith.mulf %1, %2 : f32
          %4 = affine.load %0[%arg3, %arg4] : memref<32x32xf32, #map27>
          %5 = arith.addf %4, %3 : f32
          affine.store %5, %0[%arg3, %arg4] : memref<32x32xf32, #map27>
        }
      }
    }
    return %0 : memref<32x32xf32, #map27>
  }
  func @PE0_AIE10(%arg0: memref<32x32xf32, #map45>, %arg1: memref<32x32xf32, #map25>, %arg2: memref<32x32xf32, #map27>) -> memref<32x32xf32, #map27> {
    %0 = memref.alloc() : memref<32x32xf32, #map27>
    affine.for %arg3 = 0 to 32 {
      affine.for %arg4 = 0 to 32 {
        %1 = affine.load %arg2[%arg3, %arg4] : memref<32x32xf32, #map27>
        affine.store %1, %0[%arg3, %arg4] : memref<32x32xf32, #map27>
      }
    }
    affine.for %arg3 = 0 to 32 {
      affine.for %arg4 = 0 to 32 {
        affine.for %arg5 = 0 to 32 {
          %1 = affine.load %arg0[%arg3, %arg5] : memref<32x32xf32, #map45>
          %2 = affine.load %arg1[%arg5, %arg4] : memref<32x32xf32, #map25>
          %3 = arith.mulf %1, %2 : f32
          %4 = affine.load %0[%arg3, %arg4] : memref<32x32xf32, #map27>
          %5 = arith.addf %4, %3 : f32
          affine.store %5, %0[%arg3, %arg4] : memref<32x32xf32, #map27>
        }
      }
    }
    return %0 : memref<32x32xf32, #map27>
  }
  func @PE0_AIE9(%arg0: memref<32x32xf32, #map46>, %arg1: memref<32x32xf32, #map26>, %arg2: memref<32x32xf32, #map27>) -> memref<32x32xf32, #map27> {
    %0 = memref.alloc() : memref<32x32xf32, #map27>
    affine.for %arg3 = 0 to 32 {
      affine.for %arg4 = 0 to 32 {
        %1 = affine.load %arg2[%arg3, %arg4] : memref<32x32xf32, #map27>
        affine.store %1, %0[%arg3, %arg4] : memref<32x32xf32, #map27>
      }
    }
    affine.for %arg3 = 0 to 32 {
      affine.for %arg4 = 0 to 32 {
        affine.for %arg5 = 0 to 32 {
          %1 = affine.load %arg0[%arg3, %arg5] : memref<32x32xf32, #map46>
          %2 = affine.load %arg1[%arg5, %arg4] : memref<32x32xf32, #map26>
          %3 = arith.mulf %1, %2 : f32
          %4 = affine.load %0[%arg3, %arg4] : memref<32x32xf32, #map27>
          %5 = arith.addf %4, %3 : f32
          affine.store %5, %0[%arg3, %arg4] : memref<32x32xf32, #map27>
        }
      }
    }
    return %0 : memref<32x32xf32, #map27>
  }
  func @PE0_AIE8(%arg0: memref<32x32xf32, #map47>, %arg1: memref<32x32xf32, #map27>, %arg2: memref<32x32xf32, #map27>) -> memref<32x32xf32, #map27> {
    %0 = memref.alloc() : memref<32x32xf32, #map27>
    affine.for %arg3 = 0 to 32 {
      affine.for %arg4 = 0 to 32 {
        %1 = affine.load %arg2[%arg3, %arg4] : memref<32x32xf32, #map27>
        affine.store %1, %0[%arg3, %arg4] : memref<32x32xf32, #map27>
      }
    }
    affine.for %arg3 = 0 to 32 {
      affine.for %arg4 = 0 to 32 {
        affine.for %arg5 = 0 to 32 {
          %1 = affine.load %arg0[%arg3, %arg5] : memref<32x32xf32, #map47>
          %2 = affine.load %arg1[%arg5, %arg4] : memref<32x32xf32, #map27>
          %3 = arith.mulf %1, %2 : f32
          %4 = affine.load %0[%arg3, %arg4] : memref<32x32xf32, #map27>
          %5 = arith.addf %4, %3 : f32
          affine.store %5, %0[%arg3, %arg4] : memref<32x32xf32, #map27>
        }
      }
    }
    return %0 : memref<32x32xf32, #map27>
  }
  func @PE0_AIE7(%arg0: memref<32x32xf32, #map44>, %arg1: memref<32x32xf32, #map28>, %arg2: memref<32x32xf32, #map31>) -> memref<32x32xf32, #map31> {
    %0 = memref.alloc() : memref<32x32xf32, #map31>
    affine.for %arg3 = 0 to 32 {
      affine.for %arg4 = 0 to 32 {
        %1 = affine.load %arg2[%arg3, %arg4] : memref<32x32xf32, #map31>
        affine.store %1, %0[%arg3, %arg4] : memref<32x32xf32, #map31>
      }
    }
    affine.for %arg3 = 0 to 32 {
      affine.for %arg4 = 0 to 32 {
        affine.for %arg5 = 0 to 32 {
          %1 = affine.load %arg0[%arg3, %arg5] : memref<32x32xf32, #map44>
          %2 = affine.load %arg1[%arg5, %arg4] : memref<32x32xf32, #map28>
          %3 = arith.mulf %1, %2 : f32
          %4 = affine.load %0[%arg3, %arg4] : memref<32x32xf32, #map31>
          %5 = arith.addf %4, %3 : f32
          affine.store %5, %0[%arg3, %arg4] : memref<32x32xf32, #map31>
        }
      }
    }
    return %0 : memref<32x32xf32, #map31>
  }
  func @PE0_AIE6(%arg0: memref<32x32xf32, #map45>, %arg1: memref<32x32xf32, #map29>, %arg2: memref<32x32xf32, #map31>) -> memref<32x32xf32, #map31> {
    %0 = memref.alloc() : memref<32x32xf32, #map31>
    affine.for %arg3 = 0 to 32 {
      affine.for %arg4 = 0 to 32 {
        %1 = affine.load %arg2[%arg3, %arg4] : memref<32x32xf32, #map31>
        affine.store %1, %0[%arg3, %arg4] : memref<32x32xf32, #map31>
      }
    }
    affine.for %arg3 = 0 to 32 {
      affine.for %arg4 = 0 to 32 {
        affine.for %arg5 = 0 to 32 {
          %1 = affine.load %arg0[%arg3, %arg5] : memref<32x32xf32, #map45>
          %2 = affine.load %arg1[%arg5, %arg4] : memref<32x32xf32, #map29>
          %3 = arith.mulf %1, %2 : f32
          %4 = affine.load %0[%arg3, %arg4] : memref<32x32xf32, #map31>
          %5 = arith.addf %4, %3 : f32
          affine.store %5, %0[%arg3, %arg4] : memref<32x32xf32, #map31>
        }
      }
    }
    return %0 : memref<32x32xf32, #map31>
  }
  func @PE0_AIE5(%arg0: memref<32x32xf32, #map46>, %arg1: memref<32x32xf32, #map30>, %arg2: memref<32x32xf32, #map31>) -> memref<32x32xf32, #map31> {
    %0 = memref.alloc() : memref<32x32xf32, #map31>
    affine.for %arg3 = 0 to 32 {
      affine.for %arg4 = 0 to 32 {
        %1 = affine.load %arg2[%arg3, %arg4] : memref<32x32xf32, #map31>
        affine.store %1, %0[%arg3, %arg4] : memref<32x32xf32, #map31>
      }
    }
    affine.for %arg3 = 0 to 32 {
      affine.for %arg4 = 0 to 32 {
        affine.for %arg5 = 0 to 32 {
          %1 = affine.load %arg0[%arg3, %arg5] : memref<32x32xf32, #map46>
          %2 = affine.load %arg1[%arg5, %arg4] : memref<32x32xf32, #map30>
          %3 = arith.mulf %1, %2 : f32
          %4 = affine.load %0[%arg3, %arg4] : memref<32x32xf32, #map31>
          %5 = arith.addf %4, %3 : f32
          affine.store %5, %0[%arg3, %arg4] : memref<32x32xf32, #map31>
        }
      }
    }
    return %0 : memref<32x32xf32, #map31>
  }
  func @PE0_AIE4(%arg0: memref<32x32xf32, #map47>, %arg1: memref<32x32xf32, #map31>, %arg2: memref<32x32xf32, #map31>) -> memref<32x32xf32, #map31> {
    %0 = memref.alloc() : memref<32x32xf32, #map31>
    affine.for %arg3 = 0 to 32 {
      affine.for %arg4 = 0 to 32 {
        %1 = affine.load %arg2[%arg3, %arg4] : memref<32x32xf32, #map31>
        affine.store %1, %0[%arg3, %arg4] : memref<32x32xf32, #map31>
      }
    }
    affine.for %arg3 = 0 to 32 {
      affine.for %arg4 = 0 to 32 {
        affine.for %arg5 = 0 to 32 {
          %1 = affine.load %arg0[%arg3, %arg5] : memref<32x32xf32, #map47>
          %2 = affine.load %arg1[%arg5, %arg4] : memref<32x32xf32, #map31>
          %3 = arith.mulf %1, %2 : f32
          %4 = affine.load %0[%arg3, %arg4] : memref<32x32xf32, #map31>
          %5 = arith.addf %4, %3 : f32
          affine.store %5, %0[%arg3, %arg4] : memref<32x32xf32, #map31>
        }
      }
    }
    return %0 : memref<32x32xf32, #map31>
  }
  func @PE0_AIE3(%arg0: memref<32x32xf32, #map44>, %arg1: memref<32x32xf32, #map32>, %arg2: memref<32x32xf32, #map35>) -> memref<32x32xf32, #map35> {
    %0 = memref.alloc() : memref<32x32xf32, #map35>
    affine.for %arg3 = 0 to 32 {
      affine.for %arg4 = 0 to 32 {
        %1 = affine.load %arg2[%arg3, %arg4] : memref<32x32xf32, #map35>
        affine.store %1, %0[%arg3, %arg4] : memref<32x32xf32, #map35>
      }
    }
    affine.for %arg3 = 0 to 32 {
      affine.for %arg4 = 0 to 32 {
        affine.for %arg5 = 0 to 32 {
          %1 = affine.load %arg0[%arg3, %arg5] : memref<32x32xf32, #map44>
          %2 = affine.load %arg1[%arg5, %arg4] : memref<32x32xf32, #map32>
          %3 = arith.mulf %1, %2 : f32
          %4 = affine.load %0[%arg3, %arg4] : memref<32x32xf32, #map35>
          %5 = arith.addf %4, %3 : f32
          affine.store %5, %0[%arg3, %arg4] : memref<32x32xf32, #map35>
        }
      }
    }
    return %0 : memref<32x32xf32, #map35>
  }
  func @PE0_AIE2(%arg0: memref<32x32xf32, #map45>, %arg1: memref<32x32xf32, #map33>, %arg2: memref<32x32xf32, #map35>) -> memref<32x32xf32, #map35> {
    %0 = memref.alloc() : memref<32x32xf32, #map35>
    affine.for %arg3 = 0 to 32 {
      affine.for %arg4 = 0 to 32 {
        %1 = affine.load %arg2[%arg3, %arg4] : memref<32x32xf32, #map35>
        affine.store %1, %0[%arg3, %arg4] : memref<32x32xf32, #map35>
      }
    }
    affine.for %arg3 = 0 to 32 {
      affine.for %arg4 = 0 to 32 {
        affine.for %arg5 = 0 to 32 {
          %1 = affine.load %arg0[%arg3, %arg5] : memref<32x32xf32, #map45>
          %2 = affine.load %arg1[%arg5, %arg4] : memref<32x32xf32, #map33>
          %3 = arith.mulf %1, %2 : f32
          %4 = affine.load %0[%arg3, %arg4] : memref<32x32xf32, #map35>
          %5 = arith.addf %4, %3 : f32
          affine.store %5, %0[%arg3, %arg4] : memref<32x32xf32, #map35>
        }
      }
    }
    return %0 : memref<32x32xf32, #map35>
  }
  func @PE0_AIE1(%arg0: memref<32x32xf32, #map46>, %arg1: memref<32x32xf32, #map34>, %arg2: memref<32x32xf32, #map35>) -> memref<32x32xf32, #map35> {
    %0 = memref.alloc() : memref<32x32xf32, #map35>
    affine.for %arg3 = 0 to 32 {
      affine.for %arg4 = 0 to 32 {
        %1 = affine.load %arg2[%arg3, %arg4] : memref<32x32xf32, #map35>
        affine.store %1, %0[%arg3, %arg4] : memref<32x32xf32, #map35>
      }
    }
    affine.for %arg3 = 0 to 32 {
      affine.for %arg4 = 0 to 32 {
        affine.for %arg5 = 0 to 32 {
          %1 = affine.load %arg0[%arg3, %arg5] : memref<32x32xf32, #map46>
          %2 = affine.load %arg1[%arg5, %arg4] : memref<32x32xf32, #map34>
          %3 = arith.mulf %1, %2 : f32
          %4 = affine.load %0[%arg3, %arg4] : memref<32x32xf32, #map35>
          %5 = arith.addf %4, %3 : f32
          affine.store %5, %0[%arg3, %arg4] : memref<32x32xf32, #map35>
        }
      }
    }
    return %0 : memref<32x32xf32, #map35>
  }
  func @PE0_AIE0(%arg0: memref<32x32xf32, #map47>, %arg1: memref<32x32xf32, #map35>, %arg2: memref<32x32xf32, #map35>) -> memref<32x32xf32, #map35> {
    %0 = memref.alloc() : memref<32x32xf32, #map35>
    affine.for %arg3 = 0 to 32 {
      affine.for %arg4 = 0 to 32 {
        %1 = affine.load %arg2[%arg3, %arg4] : memref<32x32xf32, #map35>
        affine.store %1, %0[%arg3, %arg4] : memref<32x32xf32, #map35>
      }
    }
    affine.for %arg3 = 0 to 32 {
      affine.for %arg4 = 0 to 32 {
        affine.for %arg5 = 0 to 32 {
          %1 = affine.load %arg0[%arg3, %arg5] : memref<32x32xf32, #map47>
          %2 = affine.load %arg1[%arg5, %arg4] : memref<32x32xf32, #map35>
          %3 = arith.mulf %1, %2 : f32
          %4 = affine.load %0[%arg3, %arg4] : memref<32x32xf32, #map35>
          %5 = arith.addf %4, %3 : f32
          affine.store %5, %0[%arg3, %arg4] : memref<32x32xf32, #map35>
        }
      }
    }
    return %0 : memref<32x32xf32, #map35>
  }
  func @gemm(%arg0: memref<128x256xf32>, %arg1: memref<128x128xf32>, %arg2: memref<128x256xf32>) attributes {polyaie.top_func} {
    %0 = memref.subview %arg0[96, 224] [32, 32] [1, 1] : memref<128x256xf32> to memref<32x32xf32, #map1>
    %1 = memref.subview %arg0[96, 192] [32, 32] [1, 1] : memref<128x256xf32> to memref<32x32xf32, #map8>
    %2 = memref.subview %arg0[96, 160] [32, 32] [1, 1] : memref<128x256xf32> to memref<32x32xf32, #map12>
    %3 = memref.subview %arg0[96, 128] [32, 32] [1, 1] : memref<128x256xf32> to memref<32x32xf32, #map16>
    %4 = memref.subview %arg0[96, 96] [32, 32] [1, 1] : memref<128x256xf32> to memref<32x32xf32, #map20>
    %5 = memref.subview %arg0[96, 64] [32, 32] [1, 1] : memref<128x256xf32> to memref<32x32xf32, #map24>
    %6 = memref.subview %arg0[96, 32] [32, 32] [1, 1] : memref<128x256xf32> to memref<32x32xf32, #map28>
    %7 = memref.subview %arg1[96, 96] [32, 32] [1, 1] : memref<128x128xf32> to memref<32x32xf32, #map0>
    %8 = memref.subview %arg1[96, 64] [32, 32] [1, 1] : memref<128x128xf32> to memref<32x32xf32, #map2>
    %9 = memref.subview %arg1[96, 32] [32, 32] [1, 1] : memref<128x128xf32> to memref<32x32xf32, #map4>
    %10 = memref.subview %arg1[96, 0] [32, 32] [1, 1] : memref<128x128xf32> to memref<32x32xf32, #map6>
    %11 = memref.subview %arg0[96, 0] [32, 32] [1, 1] : memref<128x256xf32> to memref<32x32xf32, #map32>
    %12 = memref.subview %arg0[64, 224] [32, 32] [1, 1] : memref<128x256xf32> to memref<32x32xf32, #map3>
    %13 = memref.subview %arg0[64, 192] [32, 32] [1, 1] : memref<128x256xf32> to memref<32x32xf32, #map9>
    %14 = memref.subview %arg0[64, 160] [32, 32] [1, 1] : memref<128x256xf32> to memref<32x32xf32, #map13>
    %15 = memref.subview %arg0[64, 128] [32, 32] [1, 1] : memref<128x256xf32> to memref<32x32xf32, #map17>
    %16 = memref.subview %arg0[64, 96] [32, 32] [1, 1] : memref<128x256xf32> to memref<32x32xf32, #map21>
    %17 = memref.subview %arg0[64, 64] [32, 32] [1, 1] : memref<128x256xf32> to memref<32x32xf32, #map25>
    %18 = memref.subview %arg0[64, 32] [32, 32] [1, 1] : memref<128x256xf32> to memref<32x32xf32, #map29>
    %19 = memref.subview %arg1[64, 96] [32, 32] [1, 1] : memref<128x128xf32> to memref<32x32xf32, #map36>
    %20 = memref.subview %arg1[64, 64] [32, 32] [1, 1] : memref<128x128xf32> to memref<32x32xf32, #map37>
    %21 = memref.subview %arg1[64, 32] [32, 32] [1, 1] : memref<128x128xf32> to memref<32x32xf32, #map38>
    %22 = memref.subview %arg1[64, 0] [32, 32] [1, 1] : memref<128x128xf32> to memref<32x32xf32, #map39>
    %23 = memref.subview %arg0[64, 0] [32, 32] [1, 1] : memref<128x256xf32> to memref<32x32xf32, #map33>
    %24 = memref.subview %arg0[32, 224] [32, 32] [1, 1] : memref<128x256xf32> to memref<32x32xf32, #map5>
    %25 = memref.subview %arg0[32, 192] [32, 32] [1, 1] : memref<128x256xf32> to memref<32x32xf32, #map10>
    %26 = memref.subview %arg0[32, 160] [32, 32] [1, 1] : memref<128x256xf32> to memref<32x32xf32, #map14>
    %27 = memref.subview %arg0[32, 128] [32, 32] [1, 1] : memref<128x256xf32> to memref<32x32xf32, #map18>
    %28 = memref.subview %arg0[32, 96] [32, 32] [1, 1] : memref<128x256xf32> to memref<32x32xf32, #map22>
    %29 = memref.subview %arg0[32, 64] [32, 32] [1, 1] : memref<128x256xf32> to memref<32x32xf32, #map26>
    %30 = memref.subview %arg0[32, 32] [32, 32] [1, 1] : memref<128x256xf32> to memref<32x32xf32, #map30>
    %31 = memref.subview %arg1[32, 96] [32, 32] [1, 1] : memref<128x128xf32> to memref<32x32xf32, #map40>
    %32 = memref.subview %arg1[32, 64] [32, 32] [1, 1] : memref<128x128xf32> to memref<32x32xf32, #map41>
    %33 = memref.subview %arg1[32, 32] [32, 32] [1, 1] : memref<128x128xf32> to memref<32x32xf32, #map42>
    %34 = memref.subview %arg1[32, 0] [32, 32] [1, 1] : memref<128x128xf32> to memref<32x32xf32, #map43>
    %35 = memref.subview %arg0[32, 0] [32, 32] [1, 1] : memref<128x256xf32> to memref<32x32xf32, #map34>
    %36 = memref.subview %arg2[96, 224] [32, 32] [1, 1] : memref<128x256xf32> to memref<32x32xf32, #map1>
    %37 = memref.subview %arg2[64, 224] [32, 32] [1, 1] : memref<128x256xf32> to memref<32x32xf32, #map3>
    %38 = memref.subview %arg2[32, 224] [32, 32] [1, 1] : memref<128x256xf32> to memref<32x32xf32, #map5>
    %39 = memref.subview %arg2[0, 224] [32, 32] [1, 1] : memref<128x256xf32> to memref<32x32xf32, #map7>
    %40 = memref.subview %arg0[0, 224] [32, 32] [1, 1] : memref<128x256xf32> to memref<32x32xf32, #map7>
    %41 = memref.subview %arg2[96, 192] [32, 32] [1, 1] : memref<128x256xf32> to memref<32x32xf32, #map8>
    %42 = memref.subview %arg2[64, 192] [32, 32] [1, 1] : memref<128x256xf32> to memref<32x32xf32, #map9>
    %43 = memref.subview %arg2[32, 192] [32, 32] [1, 1] : memref<128x256xf32> to memref<32x32xf32, #map10>
    %44 = memref.subview %arg2[0, 192] [32, 32] [1, 1] : memref<128x256xf32> to memref<32x32xf32, #map11>
    %45 = memref.subview %arg0[0, 192] [32, 32] [1, 1] : memref<128x256xf32> to memref<32x32xf32, #map11>
    %46 = memref.subview %arg2[96, 160] [32, 32] [1, 1] : memref<128x256xf32> to memref<32x32xf32, #map12>
    %47 = memref.subview %arg2[64, 160] [32, 32] [1, 1] : memref<128x256xf32> to memref<32x32xf32, #map13>
    %48 = memref.subview %arg2[32, 160] [32, 32] [1, 1] : memref<128x256xf32> to memref<32x32xf32, #map14>
    %49 = memref.subview %arg2[0, 160] [32, 32] [1, 1] : memref<128x256xf32> to memref<32x32xf32, #map15>
    %50 = memref.subview %arg0[0, 160] [32, 32] [1, 1] : memref<128x256xf32> to memref<32x32xf32, #map15>
    %51 = memref.subview %arg2[96, 128] [32, 32] [1, 1] : memref<128x256xf32> to memref<32x32xf32, #map16>
    %52 = memref.subview %arg2[64, 128] [32, 32] [1, 1] : memref<128x256xf32> to memref<32x32xf32, #map17>
    %53 = memref.subview %arg2[32, 128] [32, 32] [1, 1] : memref<128x256xf32> to memref<32x32xf32, #map18>
    %54 = memref.subview %arg2[0, 128] [32, 32] [1, 1] : memref<128x256xf32> to memref<32x32xf32, #map19>
    %55 = memref.subview %arg0[0, 128] [32, 32] [1, 1] : memref<128x256xf32> to memref<32x32xf32, #map19>
    %56 = memref.subview %arg2[96, 96] [32, 32] [1, 1] : memref<128x256xf32> to memref<32x32xf32, #map20>
    %57 = memref.subview %arg2[64, 96] [32, 32] [1, 1] : memref<128x256xf32> to memref<32x32xf32, #map21>
    %58 = memref.subview %arg2[32, 96] [32, 32] [1, 1] : memref<128x256xf32> to memref<32x32xf32, #map22>
    %59 = memref.subview %arg2[0, 96] [32, 32] [1, 1] : memref<128x256xf32> to memref<32x32xf32, #map23>
    %60 = memref.subview %arg0[0, 96] [32, 32] [1, 1] : memref<128x256xf32> to memref<32x32xf32, #map23>
    %61 = memref.subview %arg2[96, 64] [32, 32] [1, 1] : memref<128x256xf32> to memref<32x32xf32, #map24>
    %62 = memref.subview %arg2[64, 64] [32, 32] [1, 1] : memref<128x256xf32> to memref<32x32xf32, #map25>
    %63 = memref.subview %arg2[32, 64] [32, 32] [1, 1] : memref<128x256xf32> to memref<32x32xf32, #map26>
    %64 = memref.subview %arg2[0, 64] [32, 32] [1, 1] : memref<128x256xf32> to memref<32x32xf32, #map27>
    %65 = memref.subview %arg0[0, 64] [32, 32] [1, 1] : memref<128x256xf32> to memref<32x32xf32, #map27>
    %66 = memref.subview %arg2[96, 32] [32, 32] [1, 1] : memref<128x256xf32> to memref<32x32xf32, #map28>
    %67 = memref.subview %arg2[64, 32] [32, 32] [1, 1] : memref<128x256xf32> to memref<32x32xf32, #map29>
    %68 = memref.subview %arg2[32, 32] [32, 32] [1, 1] : memref<128x256xf32> to memref<32x32xf32, #map30>
    %69 = memref.subview %arg2[0, 32] [32, 32] [1, 1] : memref<128x256xf32> to memref<32x32xf32, #map31>
    %70 = memref.subview %arg0[0, 32] [32, 32] [1, 1] : memref<128x256xf32> to memref<32x32xf32, #map31>
    %71 = memref.subview %arg1[0, 96] [32, 32] [1, 1] : memref<128x128xf32> to memref<32x32xf32, #map44>
    %72 = memref.subview %arg2[96, 0] [32, 32] [1, 1] : memref<128x256xf32> to memref<32x32xf32, #map32>
    %73 = memref.subview %arg1[0, 64] [32, 32] [1, 1] : memref<128x128xf32> to memref<32x32xf32, #map45>
    %74 = memref.subview %arg2[64, 0] [32, 32] [1, 1] : memref<128x256xf32> to memref<32x32xf32, #map33>
    %75 = memref.subview %arg1[0, 32] [32, 32] [1, 1] : memref<128x128xf32> to memref<32x32xf32, #map46>
    %76 = memref.subview %arg2[32, 0] [32, 32] [1, 1] : memref<128x256xf32> to memref<32x32xf32, #map34>
    %77 = memref.subview %arg1[0, 0] [32, 32] [1, 1] : memref<128x128xf32> to memref<32x32xf32, #map47>
    %78 = memref.subview %arg2[0, 0] [32, 32] [1, 1] : memref<128x256xf32> to memref<32x32xf32, #map35>
    %79 = memref.subview %arg0[0, 0] [32, 32] [1, 1] : memref<128x256xf32> to memref<32x32xf32, #map35>
    %80 = call @PE0_AIE0(%77, %78, %79) : (memref<32x32xf32, #map47>, memref<32x32xf32, #map35>, memref<32x32xf32, #map35>) -> memref<32x32xf32, #map35>
    %81 = call @PE0_AIE1(%75, %76, %80) : (memref<32x32xf32, #map46>, memref<32x32xf32, #map34>, memref<32x32xf32, #map35>) -> memref<32x32xf32, #map35>
    %82 = call @PE0_AIE2(%73, %74, %81) : (memref<32x32xf32, #map45>, memref<32x32xf32, #map33>, memref<32x32xf32, #map35>) -> memref<32x32xf32, #map35>
    %83 = call @PE0_AIE3(%71, %72, %82) : (memref<32x32xf32, #map44>, memref<32x32xf32, #map32>, memref<32x32xf32, #map35>) -> memref<32x32xf32, #map35>
    memref.copy %83, %79 : memref<32x32xf32, #map35> to memref<32x32xf32, #map35>
    %84 = call @PE0_AIE4(%77, %69, %70) : (memref<32x32xf32, #map47>, memref<32x32xf32, #map31>, memref<32x32xf32, #map31>) -> memref<32x32xf32, #map31>
    %85 = call @PE0_AIE5(%75, %68, %84) : (memref<32x32xf32, #map46>, memref<32x32xf32, #map30>, memref<32x32xf32, #map31>) -> memref<32x32xf32, #map31>
    %86 = call @PE0_AIE6(%73, %67, %85) : (memref<32x32xf32, #map45>, memref<32x32xf32, #map29>, memref<32x32xf32, #map31>) -> memref<32x32xf32, #map31>
    %87 = call @PE0_AIE7(%71, %66, %86) : (memref<32x32xf32, #map44>, memref<32x32xf32, #map28>, memref<32x32xf32, #map31>) -> memref<32x32xf32, #map31>
    memref.copy %87, %70 : memref<32x32xf32, #map31> to memref<32x32xf32, #map31>
    %88 = call @PE0_AIE8(%77, %64, %65) : (memref<32x32xf32, #map47>, memref<32x32xf32, #map27>, memref<32x32xf32, #map27>) -> memref<32x32xf32, #map27>
    %89 = call @PE0_AIE9(%75, %63, %88) : (memref<32x32xf32, #map46>, memref<32x32xf32, #map26>, memref<32x32xf32, #map27>) -> memref<32x32xf32, #map27>
    %90 = call @PE0_AIE10(%73, %62, %89) : (memref<32x32xf32, #map45>, memref<32x32xf32, #map25>, memref<32x32xf32, #map27>) -> memref<32x32xf32, #map27>
    %91 = call @PE0_AIE11(%71, %61, %90) : (memref<32x32xf32, #map44>, memref<32x32xf32, #map24>, memref<32x32xf32, #map27>) -> memref<32x32xf32, #map27>
    memref.copy %91, %65 : memref<32x32xf32, #map27> to memref<32x32xf32, #map27>
    %92 = call @PE0_AIE12(%77, %59, %60) : (memref<32x32xf32, #map47>, memref<32x32xf32, #map23>, memref<32x32xf32, #map23>) -> memref<32x32xf32, #map23>
    %93 = call @PE0_AIE13(%75, %58, %92) : (memref<32x32xf32, #map46>, memref<32x32xf32, #map22>, memref<32x32xf32, #map23>) -> memref<32x32xf32, #map23>
    %94 = call @PE0_AIE14(%73, %57, %93) : (memref<32x32xf32, #map45>, memref<32x32xf32, #map21>, memref<32x32xf32, #map23>) -> memref<32x32xf32, #map23>
    %95 = call @PE0_AIE15(%71, %56, %94) : (memref<32x32xf32, #map44>, memref<32x32xf32, #map20>, memref<32x32xf32, #map23>) -> memref<32x32xf32, #map23>
    memref.copy %95, %60 : memref<32x32xf32, #map23> to memref<32x32xf32, #map23>
    %96 = call @PE0_AIE16(%77, %54, %55) : (memref<32x32xf32, #map47>, memref<32x32xf32, #map19>, memref<32x32xf32, #map19>) -> memref<32x32xf32, #map19>
    %97 = call @PE0_AIE17(%75, %53, %96) : (memref<32x32xf32, #map46>, memref<32x32xf32, #map18>, memref<32x32xf32, #map19>) -> memref<32x32xf32, #map19>
    %98 = call @PE0_AIE18(%73, %52, %97) : (memref<32x32xf32, #map45>, memref<32x32xf32, #map17>, memref<32x32xf32, #map19>) -> memref<32x32xf32, #map19>
    %99 = call @PE0_AIE19(%71, %51, %98) : (memref<32x32xf32, #map44>, memref<32x32xf32, #map16>, memref<32x32xf32, #map19>) -> memref<32x32xf32, #map19>
    memref.copy %99, %55 : memref<32x32xf32, #map19> to memref<32x32xf32, #map19>
    %100 = call @PE0_AIE20(%77, %49, %50) : (memref<32x32xf32, #map47>, memref<32x32xf32, #map15>, memref<32x32xf32, #map15>) -> memref<32x32xf32, #map15>
    %101 = call @PE0_AIE21(%75, %48, %100) : (memref<32x32xf32, #map46>, memref<32x32xf32, #map14>, memref<32x32xf32, #map15>) -> memref<32x32xf32, #map15>
    %102 = call @PE0_AIE22(%73, %47, %101) : (memref<32x32xf32, #map45>, memref<32x32xf32, #map13>, memref<32x32xf32, #map15>) -> memref<32x32xf32, #map15>
    %103 = call @PE0_AIE23(%71, %46, %102) : (memref<32x32xf32, #map44>, memref<32x32xf32, #map12>, memref<32x32xf32, #map15>) -> memref<32x32xf32, #map15>
    memref.copy %103, %50 : memref<32x32xf32, #map15> to memref<32x32xf32, #map15>
    %104 = call @PE0_AIE24(%77, %44, %45) : (memref<32x32xf32, #map47>, memref<32x32xf32, #map11>, memref<32x32xf32, #map11>) -> memref<32x32xf32, #map11>
    %105 = call @PE0_AIE25(%75, %43, %104) : (memref<32x32xf32, #map46>, memref<32x32xf32, #map10>, memref<32x32xf32, #map11>) -> memref<32x32xf32, #map11>
    %106 = call @PE0_AIE26(%73, %42, %105) : (memref<32x32xf32, #map45>, memref<32x32xf32, #map9>, memref<32x32xf32, #map11>) -> memref<32x32xf32, #map11>
    %107 = call @PE0_AIE27(%71, %41, %106) : (memref<32x32xf32, #map44>, memref<32x32xf32, #map8>, memref<32x32xf32, #map11>) -> memref<32x32xf32, #map11>
    memref.copy %107, %45 : memref<32x32xf32, #map11> to memref<32x32xf32, #map11>
    %108 = call @PE0_AIE28(%77, %39, %40) : (memref<32x32xf32, #map47>, memref<32x32xf32, #map7>, memref<32x32xf32, #map7>) -> memref<32x32xf32, #map7>
    %109 = call @PE0_AIE29(%75, %38, %108) : (memref<32x32xf32, #map46>, memref<32x32xf32, #map5>, memref<32x32xf32, #map7>) -> memref<32x32xf32, #map7>
    %110 = call @PE0_AIE30(%73, %37, %109) : (memref<32x32xf32, #map45>, memref<32x32xf32, #map3>, memref<32x32xf32, #map7>) -> memref<32x32xf32, #map7>
    %111 = call @PE0_AIE31(%71, %36, %110) : (memref<32x32xf32, #map44>, memref<32x32xf32, #map1>, memref<32x32xf32, #map7>) -> memref<32x32xf32, #map7>
    memref.copy %111, %40 : memref<32x32xf32, #map7> to memref<32x32xf32, #map7>
    %112 = call @PE0_AIE32(%34, %78, %35) : (memref<32x32xf32, #map43>, memref<32x32xf32, #map35>, memref<32x32xf32, #map34>) -> memref<32x32xf32, #map34>
    %113 = call @PE0_AIE33(%33, %76, %112) : (memref<32x32xf32, #map42>, memref<32x32xf32, #map34>, memref<32x32xf32, #map34>) -> memref<32x32xf32, #map34>
    %114 = call @PE0_AIE34(%32, %74, %113) : (memref<32x32xf32, #map41>, memref<32x32xf32, #map33>, memref<32x32xf32, #map34>) -> memref<32x32xf32, #map34>
    %115 = call @PE0_AIE35(%31, %72, %114) : (memref<32x32xf32, #map40>, memref<32x32xf32, #map32>, memref<32x32xf32, #map34>) -> memref<32x32xf32, #map34>
    memref.copy %115, %35 : memref<32x32xf32, #map34> to memref<32x32xf32, #map34>
    %116 = call @PE0_AIE36(%34, %69, %30) : (memref<32x32xf32, #map43>, memref<32x32xf32, #map31>, memref<32x32xf32, #map30>) -> memref<32x32xf32, #map30>
    %117 = call @PE0_AIE37(%33, %68, %116) : (memref<32x32xf32, #map42>, memref<32x32xf32, #map30>, memref<32x32xf32, #map30>) -> memref<32x32xf32, #map30>
    %118 = call @PE0_AIE38(%32, %67, %117) : (memref<32x32xf32, #map41>, memref<32x32xf32, #map29>, memref<32x32xf32, #map30>) -> memref<32x32xf32, #map30>
    %119 = call @PE0_AIE39(%31, %66, %118) : (memref<32x32xf32, #map40>, memref<32x32xf32, #map28>, memref<32x32xf32, #map30>) -> memref<32x32xf32, #map30>
    memref.copy %119, %30 : memref<32x32xf32, #map30> to memref<32x32xf32, #map30>
    %120 = call @PE0_AIE40(%34, %64, %29) : (memref<32x32xf32, #map43>, memref<32x32xf32, #map27>, memref<32x32xf32, #map26>) -> memref<32x32xf32, #map26>
    %121 = call @PE0_AIE41(%33, %63, %120) : (memref<32x32xf32, #map42>, memref<32x32xf32, #map26>, memref<32x32xf32, #map26>) -> memref<32x32xf32, #map26>
    %122 = call @PE0_AIE42(%32, %62, %121) : (memref<32x32xf32, #map41>, memref<32x32xf32, #map25>, memref<32x32xf32, #map26>) -> memref<32x32xf32, #map26>
    %123 = call @PE0_AIE43(%31, %61, %122) : (memref<32x32xf32, #map40>, memref<32x32xf32, #map24>, memref<32x32xf32, #map26>) -> memref<32x32xf32, #map26>
    memref.copy %123, %29 : memref<32x32xf32, #map26> to memref<32x32xf32, #map26>
    %124 = call @PE0_AIE44(%34, %59, %28) : (memref<32x32xf32, #map43>, memref<32x32xf32, #map23>, memref<32x32xf32, #map22>) -> memref<32x32xf32, #map22>
    %125 = call @PE0_AIE45(%33, %58, %124) : (memref<32x32xf32, #map42>, memref<32x32xf32, #map22>, memref<32x32xf32, #map22>) -> memref<32x32xf32, #map22>
    %126 = call @PE0_AIE46(%32, %57, %125) : (memref<32x32xf32, #map41>, memref<32x32xf32, #map21>, memref<32x32xf32, #map22>) -> memref<32x32xf32, #map22>
    %127 = call @PE0_AIE47(%31, %56, %126) : (memref<32x32xf32, #map40>, memref<32x32xf32, #map20>, memref<32x32xf32, #map22>) -> memref<32x32xf32, #map22>
    memref.copy %127, %28 : memref<32x32xf32, #map22> to memref<32x32xf32, #map22>
    %128 = call @PE0_AIE48(%34, %54, %27) : (memref<32x32xf32, #map43>, memref<32x32xf32, #map19>, memref<32x32xf32, #map18>) -> memref<32x32xf32, #map18>
    %129 = call @PE0_AIE49(%33, %53, %128) : (memref<32x32xf32, #map42>, memref<32x32xf32, #map18>, memref<32x32xf32, #map18>) -> memref<32x32xf32, #map18>
    %130 = call @PE0_AIE50(%32, %52, %129) : (memref<32x32xf32, #map41>, memref<32x32xf32, #map17>, memref<32x32xf32, #map18>) -> memref<32x32xf32, #map18>
    %131 = call @PE0_AIE51(%31, %51, %130) : (memref<32x32xf32, #map40>, memref<32x32xf32, #map16>, memref<32x32xf32, #map18>) -> memref<32x32xf32, #map18>
    memref.copy %131, %27 : memref<32x32xf32, #map18> to memref<32x32xf32, #map18>
    %132 = call @PE0_AIE52(%34, %49, %26) : (memref<32x32xf32, #map43>, memref<32x32xf32, #map15>, memref<32x32xf32, #map14>) -> memref<32x32xf32, #map14>
    %133 = call @PE0_AIE53(%33, %48, %132) : (memref<32x32xf32, #map42>, memref<32x32xf32, #map14>, memref<32x32xf32, #map14>) -> memref<32x32xf32, #map14>
    %134 = call @PE0_AIE54(%32, %47, %133) : (memref<32x32xf32, #map41>, memref<32x32xf32, #map13>, memref<32x32xf32, #map14>) -> memref<32x32xf32, #map14>
    %135 = call @PE0_AIE55(%31, %46, %134) : (memref<32x32xf32, #map40>, memref<32x32xf32, #map12>, memref<32x32xf32, #map14>) -> memref<32x32xf32, #map14>
    memref.copy %135, %26 : memref<32x32xf32, #map14> to memref<32x32xf32, #map14>
    %136 = call @PE0_AIE56(%34, %44, %25) : (memref<32x32xf32, #map43>, memref<32x32xf32, #map11>, memref<32x32xf32, #map10>) -> memref<32x32xf32, #map10>
    %137 = call @PE0_AIE57(%33, %43, %136) : (memref<32x32xf32, #map42>, memref<32x32xf32, #map10>, memref<32x32xf32, #map10>) -> memref<32x32xf32, #map10>
    %138 = call @PE0_AIE58(%32, %42, %137) : (memref<32x32xf32, #map41>, memref<32x32xf32, #map9>, memref<32x32xf32, #map10>) -> memref<32x32xf32, #map10>
    %139 = call @PE0_AIE59(%31, %41, %138) : (memref<32x32xf32, #map40>, memref<32x32xf32, #map8>, memref<32x32xf32, #map10>) -> memref<32x32xf32, #map10>
    memref.copy %139, %25 : memref<32x32xf32, #map10> to memref<32x32xf32, #map10>
    %140 = call @PE0_AIE60(%34, %39, %24) : (memref<32x32xf32, #map43>, memref<32x32xf32, #map7>, memref<32x32xf32, #map5>) -> memref<32x32xf32, #map5>
    %141 = call @PE0_AIE61(%33, %38, %140) : (memref<32x32xf32, #map42>, memref<32x32xf32, #map5>, memref<32x32xf32, #map5>) -> memref<32x32xf32, #map5>
    %142 = call @PE0_AIE62(%32, %37, %141) : (memref<32x32xf32, #map41>, memref<32x32xf32, #map3>, memref<32x32xf32, #map5>) -> memref<32x32xf32, #map5>
    %143 = call @PE0_AIE63(%31, %36, %142) : (memref<32x32xf32, #map40>, memref<32x32xf32, #map1>, memref<32x32xf32, #map5>) -> memref<32x32xf32, #map5>
    memref.copy %143, %24 : memref<32x32xf32, #map5> to memref<32x32xf32, #map5>
    %144 = call @PE0_AIE64(%22, %78, %23) : (memref<32x32xf32, #map39>, memref<32x32xf32, #map35>, memref<32x32xf32, #map33>) -> memref<32x32xf32, #map33>
    %145 = call @PE0_AIE65(%21, %76, %144) : (memref<32x32xf32, #map38>, memref<32x32xf32, #map34>, memref<32x32xf32, #map33>) -> memref<32x32xf32, #map33>
    %146 = call @PE0_AIE66(%20, %74, %145) : (memref<32x32xf32, #map37>, memref<32x32xf32, #map33>, memref<32x32xf32, #map33>) -> memref<32x32xf32, #map33>
    %147 = call @PE0_AIE67(%19, %72, %146) : (memref<32x32xf32, #map36>, memref<32x32xf32, #map32>, memref<32x32xf32, #map33>) -> memref<32x32xf32, #map33>
    memref.copy %147, %23 : memref<32x32xf32, #map33> to memref<32x32xf32, #map33>
    %148 = call @PE0_AIE68(%22, %69, %18) : (memref<32x32xf32, #map39>, memref<32x32xf32, #map31>, memref<32x32xf32, #map29>) -> memref<32x32xf32, #map29>
    %149 = call @PE0_AIE69(%21, %68, %148) : (memref<32x32xf32, #map38>, memref<32x32xf32, #map30>, memref<32x32xf32, #map29>) -> memref<32x32xf32, #map29>
    %150 = call @PE0_AIE70(%20, %67, %149) : (memref<32x32xf32, #map37>, memref<32x32xf32, #map29>, memref<32x32xf32, #map29>) -> memref<32x32xf32, #map29>
    %151 = call @PE0_AIE71(%19, %66, %150) : (memref<32x32xf32, #map36>, memref<32x32xf32, #map28>, memref<32x32xf32, #map29>) -> memref<32x32xf32, #map29>
    memref.copy %151, %18 : memref<32x32xf32, #map29> to memref<32x32xf32, #map29>
    %152 = call @PE0_AIE72(%22, %64, %17) : (memref<32x32xf32, #map39>, memref<32x32xf32, #map27>, memref<32x32xf32, #map25>) -> memref<32x32xf32, #map25>
    %153 = call @PE0_AIE73(%21, %63, %152) : (memref<32x32xf32, #map38>, memref<32x32xf32, #map26>, memref<32x32xf32, #map25>) -> memref<32x32xf32, #map25>
    %154 = call @PE0_AIE74(%20, %62, %153) : (memref<32x32xf32, #map37>, memref<32x32xf32, #map25>, memref<32x32xf32, #map25>) -> memref<32x32xf32, #map25>
    %155 = call @PE0_AIE75(%19, %61, %154) : (memref<32x32xf32, #map36>, memref<32x32xf32, #map24>, memref<32x32xf32, #map25>) -> memref<32x32xf32, #map25>
    memref.copy %155, %17 : memref<32x32xf32, #map25> to memref<32x32xf32, #map25>
    %156 = call @PE0_AIE76(%22, %59, %16) : (memref<32x32xf32, #map39>, memref<32x32xf32, #map23>, memref<32x32xf32, #map21>) -> memref<32x32xf32, #map21>
    %157 = call @PE0_AIE77(%21, %58, %156) : (memref<32x32xf32, #map38>, memref<32x32xf32, #map22>, memref<32x32xf32, #map21>) -> memref<32x32xf32, #map21>
    %158 = call @PE0_AIE78(%20, %57, %157) : (memref<32x32xf32, #map37>, memref<32x32xf32, #map21>, memref<32x32xf32, #map21>) -> memref<32x32xf32, #map21>
    %159 = call @PE0_AIE79(%19, %56, %158) : (memref<32x32xf32, #map36>, memref<32x32xf32, #map20>, memref<32x32xf32, #map21>) -> memref<32x32xf32, #map21>
    memref.copy %159, %16 : memref<32x32xf32, #map21> to memref<32x32xf32, #map21>
    %160 = call @PE0_AIE80(%22, %54, %15) : (memref<32x32xf32, #map39>, memref<32x32xf32, #map19>, memref<32x32xf32, #map17>) -> memref<32x32xf32, #map17>
    %161 = call @PE0_AIE81(%21, %53, %160) : (memref<32x32xf32, #map38>, memref<32x32xf32, #map18>, memref<32x32xf32, #map17>) -> memref<32x32xf32, #map17>
    %162 = call @PE0_AIE82(%20, %52, %161) : (memref<32x32xf32, #map37>, memref<32x32xf32, #map17>, memref<32x32xf32, #map17>) -> memref<32x32xf32, #map17>
    %163 = call @PE0_AIE83(%19, %51, %162) : (memref<32x32xf32, #map36>, memref<32x32xf32, #map16>, memref<32x32xf32, #map17>) -> memref<32x32xf32, #map17>
    memref.copy %163, %15 : memref<32x32xf32, #map17> to memref<32x32xf32, #map17>
    %164 = call @PE0_AIE84(%22, %49, %14) : (memref<32x32xf32, #map39>, memref<32x32xf32, #map15>, memref<32x32xf32, #map13>) -> memref<32x32xf32, #map13>
    %165 = call @PE0_AIE85(%21, %48, %164) : (memref<32x32xf32, #map38>, memref<32x32xf32, #map14>, memref<32x32xf32, #map13>) -> memref<32x32xf32, #map13>
    %166 = call @PE0_AIE86(%20, %47, %165) : (memref<32x32xf32, #map37>, memref<32x32xf32, #map13>, memref<32x32xf32, #map13>) -> memref<32x32xf32, #map13>
    %167 = call @PE0_AIE87(%19, %46, %166) : (memref<32x32xf32, #map36>, memref<32x32xf32, #map12>, memref<32x32xf32, #map13>) -> memref<32x32xf32, #map13>
    memref.copy %167, %14 : memref<32x32xf32, #map13> to memref<32x32xf32, #map13>
    %168 = call @PE0_AIE88(%22, %44, %13) : (memref<32x32xf32, #map39>, memref<32x32xf32, #map11>, memref<32x32xf32, #map9>) -> memref<32x32xf32, #map9>
    %169 = call @PE0_AIE89(%21, %43, %168) : (memref<32x32xf32, #map38>, memref<32x32xf32, #map10>, memref<32x32xf32, #map9>) -> memref<32x32xf32, #map9>
    %170 = call @PE0_AIE90(%20, %42, %169) : (memref<32x32xf32, #map37>, memref<32x32xf32, #map9>, memref<32x32xf32, #map9>) -> memref<32x32xf32, #map9>
    %171 = call @PE0_AIE91(%19, %41, %170) : (memref<32x32xf32, #map36>, memref<32x32xf32, #map8>, memref<32x32xf32, #map9>) -> memref<32x32xf32, #map9>
    memref.copy %171, %13 : memref<32x32xf32, #map9> to memref<32x32xf32, #map9>
    %172 = call @PE0_AIE92(%22, %39, %12) : (memref<32x32xf32, #map39>, memref<32x32xf32, #map7>, memref<32x32xf32, #map3>) -> memref<32x32xf32, #map3>
    %173 = call @PE0_AIE93(%21, %38, %172) : (memref<32x32xf32, #map38>, memref<32x32xf32, #map5>, memref<32x32xf32, #map3>) -> memref<32x32xf32, #map3>
    %174 = call @PE0_AIE94(%20, %37, %173) : (memref<32x32xf32, #map37>, memref<32x32xf32, #map3>, memref<32x32xf32, #map3>) -> memref<32x32xf32, #map3>
    %175 = call @PE0_AIE95(%19, %36, %174) : (memref<32x32xf32, #map36>, memref<32x32xf32, #map1>, memref<32x32xf32, #map3>) -> memref<32x32xf32, #map3>
    memref.copy %175, %12 : memref<32x32xf32, #map3> to memref<32x32xf32, #map3>
    %176 = call @PE0_AIE96(%10, %78, %11) : (memref<32x32xf32, #map6>, memref<32x32xf32, #map35>, memref<32x32xf32, #map32>) -> memref<32x32xf32, #map32>
    %177 = call @PE0_AIE97(%9, %76, %176) : (memref<32x32xf32, #map4>, memref<32x32xf32, #map34>, memref<32x32xf32, #map32>) -> memref<32x32xf32, #map32>
    %178 = call @PE0_AIE98(%8, %74, %177) : (memref<32x32xf32, #map2>, memref<32x32xf32, #map33>, memref<32x32xf32, #map32>) -> memref<32x32xf32, #map32>
    %179 = call @PE0_AIE99(%7, %72, %178) : (memref<32x32xf32, #map0>, memref<32x32xf32, #map32>, memref<32x32xf32, #map32>) -> memref<32x32xf32, #map32>
    memref.copy %179, %11 : memref<32x32xf32, #map32> to memref<32x32xf32, #map32>
    %180 = call @PE0_AIE100(%10, %69, %6) : (memref<32x32xf32, #map6>, memref<32x32xf32, #map31>, memref<32x32xf32, #map28>) -> memref<32x32xf32, #map28>
    %181 = call @PE0_AIE101(%9, %68, %180) : (memref<32x32xf32, #map4>, memref<32x32xf32, #map30>, memref<32x32xf32, #map28>) -> memref<32x32xf32, #map28>
    %182 = call @PE0_AIE102(%8, %67, %181) : (memref<32x32xf32, #map2>, memref<32x32xf32, #map29>, memref<32x32xf32, #map28>) -> memref<32x32xf32, #map28>
    %183 = call @PE0_AIE103(%7, %66, %182) : (memref<32x32xf32, #map0>, memref<32x32xf32, #map28>, memref<32x32xf32, #map28>) -> memref<32x32xf32, #map28>
    memref.copy %183, %6 : memref<32x32xf32, #map28> to memref<32x32xf32, #map28>
    %184 = call @PE0_AIE104(%10, %64, %5) : (memref<32x32xf32, #map6>, memref<32x32xf32, #map27>, memref<32x32xf32, #map24>) -> memref<32x32xf32, #map24>
    %185 = call @PE0_AIE105(%9, %63, %184) : (memref<32x32xf32, #map4>, memref<32x32xf32, #map26>, memref<32x32xf32, #map24>) -> memref<32x32xf32, #map24>
    %186 = call @PE0_AIE106(%8, %62, %185) : (memref<32x32xf32, #map2>, memref<32x32xf32, #map25>, memref<32x32xf32, #map24>) -> memref<32x32xf32, #map24>
    %187 = call @PE0_AIE107(%7, %61, %186) : (memref<32x32xf32, #map0>, memref<32x32xf32, #map24>, memref<32x32xf32, #map24>) -> memref<32x32xf32, #map24>
    memref.copy %187, %5 : memref<32x32xf32, #map24> to memref<32x32xf32, #map24>
    %188 = call @PE0_AIE108(%10, %59, %4) : (memref<32x32xf32, #map6>, memref<32x32xf32, #map23>, memref<32x32xf32, #map20>) -> memref<32x32xf32, #map20>
    %189 = call @PE0_AIE109(%9, %58, %188) : (memref<32x32xf32, #map4>, memref<32x32xf32, #map22>, memref<32x32xf32, #map20>) -> memref<32x32xf32, #map20>
    %190 = call @PE0_AIE110(%8, %57, %189) : (memref<32x32xf32, #map2>, memref<32x32xf32, #map21>, memref<32x32xf32, #map20>) -> memref<32x32xf32, #map20>
    %191 = call @PE0_AIE111(%7, %56, %190) : (memref<32x32xf32, #map0>, memref<32x32xf32, #map20>, memref<32x32xf32, #map20>) -> memref<32x32xf32, #map20>
    memref.copy %191, %4 : memref<32x32xf32, #map20> to memref<32x32xf32, #map20>
    %192 = call @PE0_AIE112(%10, %54, %3) : (memref<32x32xf32, #map6>, memref<32x32xf32, #map19>, memref<32x32xf32, #map16>) -> memref<32x32xf32, #map16>
    %193 = call @PE0_AIE113(%9, %53, %192) : (memref<32x32xf32, #map4>, memref<32x32xf32, #map18>, memref<32x32xf32, #map16>) -> memref<32x32xf32, #map16>
    %194 = call @PE0_AIE114(%8, %52, %193) : (memref<32x32xf32, #map2>, memref<32x32xf32, #map17>, memref<32x32xf32, #map16>) -> memref<32x32xf32, #map16>
    %195 = call @PE0_AIE115(%7, %51, %194) : (memref<32x32xf32, #map0>, memref<32x32xf32, #map16>, memref<32x32xf32, #map16>) -> memref<32x32xf32, #map16>
    memref.copy %195, %3 : memref<32x32xf32, #map16> to memref<32x32xf32, #map16>
    %196 = call @PE0_AIE116(%10, %49, %2) : (memref<32x32xf32, #map6>, memref<32x32xf32, #map15>, memref<32x32xf32, #map12>) -> memref<32x32xf32, #map12>
    %197 = call @PE0_AIE117(%9, %48, %196) : (memref<32x32xf32, #map4>, memref<32x32xf32, #map14>, memref<32x32xf32, #map12>) -> memref<32x32xf32, #map12>
    %198 = call @PE0_AIE118(%8, %47, %197) : (memref<32x32xf32, #map2>, memref<32x32xf32, #map13>, memref<32x32xf32, #map12>) -> memref<32x32xf32, #map12>
    %199 = call @PE0_AIE119(%7, %46, %198) : (memref<32x32xf32, #map0>, memref<32x32xf32, #map12>, memref<32x32xf32, #map12>) -> memref<32x32xf32, #map12>
    memref.copy %199, %2 : memref<32x32xf32, #map12> to memref<32x32xf32, #map12>
    %200 = call @PE0_AIE120(%10, %44, %1) : (memref<32x32xf32, #map6>, memref<32x32xf32, #map11>, memref<32x32xf32, #map8>) -> memref<32x32xf32, #map8>
    %201 = call @PE0_AIE121(%9, %43, %200) : (memref<32x32xf32, #map4>, memref<32x32xf32, #map10>, memref<32x32xf32, #map8>) -> memref<32x32xf32, #map8>
    %202 = call @PE0_AIE122(%8, %42, %201) : (memref<32x32xf32, #map2>, memref<32x32xf32, #map9>, memref<32x32xf32, #map8>) -> memref<32x32xf32, #map8>
    %203 = call @PE0_AIE123(%7, %41, %202) : (memref<32x32xf32, #map0>, memref<32x32xf32, #map8>, memref<32x32xf32, #map8>) -> memref<32x32xf32, #map8>
    memref.copy %203, %1 : memref<32x32xf32, #map8> to memref<32x32xf32, #map8>
    %204 = call @PE0_AIE124(%10, %39, %0) : (memref<32x32xf32, #map6>, memref<32x32xf32, #map7>, memref<32x32xf32, #map1>) -> memref<32x32xf32, #map1>
    %205 = call @PE0_AIE125(%9, %38, %204) : (memref<32x32xf32, #map4>, memref<32x32xf32, #map5>, memref<32x32xf32, #map1>) -> memref<32x32xf32, #map1>
    %206 = call @PE0_AIE126(%8, %37, %205) : (memref<32x32xf32, #map2>, memref<32x32xf32, #map3>, memref<32x32xf32, #map1>) -> memref<32x32xf32, #map1>
    %207 = call @PE0_AIE127(%7, %36, %206) : (memref<32x32xf32, #map0>, memref<32x32xf32, #map1>, memref<32x32xf32, #map1>) -> memref<32x32xf32, #map1>
    memref.copy %207, %0 : memref<32x32xf32, #map1> to memref<32x32xf32, #map1>
    return
  }
}

